checkpoints/20251114_154930/best_combo.pt (torch, 73369 bytes, 12 tensors)

linear_modules.0.weight f4 [32, 100]
0	0x3e100d7b	0.14067642
1	0x3e56dd61	0.20982887
2	0x3f0dce15	0.5539258
3	0x3f5da9c1	0.8658715
4	0x3f66528d	0.8996971
5	0x3e811a99	0.25215605
6	0x3e39b9de	0.18137309
7	0x3f6d5f0d	0.9272316
8	0x3f120746	0.5704235
9	0x3e5bbd0f	0.21458839
10	0x3eab97ca	0.33514243
11	0x3eddf0fe	0.43347925
12	0x3ef36b14	0.47542632
13	0x3efe0959	0.49616507
14	0x3ed3dec7	0.41380903
15	0x3e78fdb5	0.24315532
16	0x3e2e007d	0.16992374
17	0x3ec7b258	0.39003253
18	0x3dcb9325	0.09940175
19	0x3e602823	0.21890311
20	0x3eae1d99	0.34006956
21	0x3e521261	0.20514823
22	0xbe32377b	-0.17403977
23	0xbcc738ed	-0.024319137
24	0x3e979ce4	0.29611886
25	0x3ebb66f0	0.36601973
26	0x3e465406	0.1936799
27	0x3e97cf5c	0.2965039
28	0x3edb5b7c	0.42843235
29	0x3efdc9ee	0.49568123
30	0xbdb19b05	-0.08672146
31	0xbe9e3731	-0.30901483
32	0xbdea5562	-0.11442067
33	0x3ec4e327	0.38454553
34	0x3e83adca	0.25718528
35	0x3e49a653	0.19692354
36	0x3ea63fd2	0.32470566
37	0x3f11d01a	0.5695816
38	0x3ed1000f	0.40820357
39	0x3e8b1d78	0.2717092
40	0xbebe4e83	-0.37169275
41	0xbf0021c1	-0.50051504
42	0xbd810121	-0.062990434
43	0x3f054a07	0.5206608
44	0x3e885897	0.2663009
45	0x3e9a941a	0.30191118
46	0x3f1ccbf9	0.6124874
47	0x3e2a514c	0.16632575
48	0x3e6afb5c	0.22947448
49	0xbd5de156	-0.054169975
50	0xbf72fdba	-0.94918406
51	0xbf0c7952	-0.5487262
52	0xbf394710	-0.7237406
53	0xbed1af9e	-0.40954298
54	0x3ec16064	0.37768853
55	0x3f03a565	0.5142425
56	0xbe8200ef	-0.25391337
57	0xbd7ef2dc	-0.062243327
58	0x3eeb1ff1	0.45922807
59	0x3ebfcec8	0.3746245
60	0xbf387d7c	-0.72066474
61	0x3c0b0394	0.00848474
62	0xbf14ba5e	-0.58096874
63	0xbf445a3e	-0.767002
64	0xbebc4933	-0.36774597
65	0xbe4d9dd9	-0.20079745
66	0xbc118419	-0.008881592
67	0x3e59c679	0.21267118
68	0x3e194aa2	0.14969876
69	0x3ebf63ae	0.37380737
70	0xbee3bd26	-0.44480246
71	0xbdac1064	-0.08401564
72	0xbf3e3409	-0.7429815
73	0xbf0af990	-0.5428705
74	0xbeacfc9d	-0.3378648
75	0xbe54cb0b	-0.2078058
76	0x3e80a407	0.25125143
77	0x3dbb1ba4	0.091361314
78	0xbe5ebcc5	-0.21751697
79	0xbe9bbaac	-0.30415857
80	0xbeb4ef18	-0.35338664
81	0xbe4722a6	-0.19446811
82	0xbe4adf02	-0.19811633
83	0xbea29b49	-0.31759098
84	0xbed6bc98	-0.4194076
85	0xbeb4b936	-0.35297555
86	0x3ea99ee1	0.33129027
87	0x3e987bfa	0.29782087
88	0x3ed8674b	0.42266306
89	0x3f4c100f	0.79712003
90	0xbe393c24	-0.18089348
91	0xbef348dd	-0.47516528
92	0x3baaea2b	0.0052159033
93	0xbd94027f	-0.072270386
94	0xbed15454	-0.4088465
95	0x3f0580be	0.5214957
96	0x3f9198d5	1.1374766
97	0x3f687403	0.9080202
98	0x3f23100d	0.63696367
99	0x3f6e011c	0.9297044
100	0xbe9f766e	-0.31145042
101	0xbe077d73	-0.13231449
102	0xbd4e8446	-0.050419115
103	0xbe9a2bb1	-0.3011146
104	0x3f500241	0.8125344
105	0x3e8e7377	0.27822468
106	0x3d14acf7	0.036297765
107	0x3f00419f	0.5010013
108	0x3dc85cd7	0.09783333
109	0xbeebfbf8	-0.46090674
110	0xbe0346df	-0.12820004
111	0x3de8555a	0.113444045
112	0x3dd7fc08	0.10546118
113	0x3e0677ed	0.13131686
114	0x3edd4ce8	0.43222737
115	0xbe6d0c84	-0.23149306
116	0xbece0857	-0.40240738
117	0x3e6b8d25	0.23003061
118	0x3ed52f43	0.4163762
119	0xbda53a2e	-0.080677375
120	0x3e48a865	0.19595487
121	0x3e7d2df0	0.24724555
122	0x3da4801a	0.08032246
123	0x3dd9adf0	0.10628879
124	0x3a406f65	0.0007340818
125	0xbdb19f2c	-0.08672938
126	0x3d09390b	0.033501666
127	0x3e6f2b04	0.23356253
128	0x3ec1139a	0.37710267
129	0x3e176d7c	0.14787859
130	0x3e0b837f	0.1362438
131	0x3e8219d9	0.25410345
132	0x3e62e172	0.22156313
133	0x3e823420	0.25430393
134	0x3e3151a8	0.17316306
135	0xbc24be15	-0.010055085
136	0xbe03cf2e	-0.12872002
137	0x3d4d9ced	0.050198484
138	0x3df3ffe9	0.11914045
139	0x3d598f78	0.053115338
140	0xbe66ab05	-0.22526176
141	0x3ecaa9c9	0.3958266
142	0x3f189510	0.5960245
143	0xbe2d94a8	-0.16951239
144	0x3e5e044d	0.21681328
145	0x3e8419cc	0.2580093
146	0x3e883881	0.2660561
147	0xbe05716d	-0.1303155
148	0x3e8c68e0	0.27423763
149	0x3e233475	0.1593798
150	0x3d42ecfa	0.04758928
151	0x3e8e32b6	0.27773064
152	0xbe859540	-0.2609043
153	0xbf86b27b	-1.0523218
154	0x3f085100	0.53248596
155	0x3e01dfa9	0.12682976
156	0x3eb591fd	0.35462943
157	0xbe0c4ae2	-0.1370044
158	0x3e3ff89e	0.18747184
159	0x3d1d4288	0.038393527
160	0xbd251969	-0.040307436
161	0xbcbf640e	-0.02336314
162	0xbed98c5d	-0.424899
163	0xbfd56f21	-1.6674539
164	0x3dc965ff	0.09833907
165	0x3d1c1564	0.038106337
166	0x3eb8654f	0.36014792
167	0xbd795416	-0.060871206
168	0x3d3f2301	0.04666424
169	0xbb44fc02	-0.0030057435
170	0xbd1a62a0	-0.037691712
171	0x3e210e83	0.15728192
172	0xbd0222a1	-0.031771306
173	0xbfff6acc	-1.9954467
174	0xbeb8d491	-0.36099675
175	0x3e43b9ac	0.19113797
176	0x3e129f75	0.1431864
177	0x3c52cf88	0.012866862
178	0x3c5e4b72	0.013567792
179	0xbda018c2	-0.07817222
180	0xbef3cc64	-0.47616875
181	0x3e91067d	0.28325263
182	0x3af01d80	0.0018319339
183	0xc00c7e7f	-2.1952207
184	0xbead9ac3	-0.33907136
185	0x3cde13f2	0.02710912
186	0xbc593fae	-0.013259811
187	0x3da0e804	0.078567535
188	0xbe5802cf	-0.21094821
189	0xbef916ad	-0.48650113
190	0xbed315ad	-0.41227475
191	0x3f18dcff	0.59712213
192	0x3ee80f63	0.4532424
193	0xc008611d	-2.1309273
194	0xbe001932	-0.12509611
195	0x3df43ec1	0.11926032
196	0x3ba43669	0.005011369
197	0xbe9c1974	-0.3048817
198	0xbe71eb28	-0.23624861
199	0xbf3e6965	-0.7437957
200	0xbd8c1951	-0.06840766
201	0xbf2901c8	-0.6601834
202	0xbf6940b1	-0.91114336
203	0x3da7a5fe	0.08185957
204	0xbee43af7	-0.44576237
205	0xbf726610	-0.94686985
206	0xbf287d4f	-0.65816206
207	0x3da9a972	0.08284272
208	0x3e864b21	0.26229194
209	0xbe5446c4	-0.2073012
210	0xbe343651	-0.17598845
211	0xbdbd3055	-0.09237734
212	0xbf312c5f	-0.6920833
213	0xbd905bd0	-0.07048762
214	0xbdcd9de6	-0.10039882
215	0xbe0bd66e	-0.13656017
216	0xbde8407f	-0.11340427
217	0x3e47d51a	0.19514886
218	0x3ea43b32	0.32076412
219	0xbe11301a	-0.14178506
220	0xbf6d3aae	-0.92667663
221	0xbe8e2efe	-0.27770227
222	0xbe5c7989	-0.21530737
223	0x3e54bf27	0.20776044
224	0xbe44a172	-0.19202211
225	0x3e3710d0	0.17877507
226	0xbc916531	-0.017748447
227	0x3ead35b1	0.33830026
228	0x3ea3ea1a	0.32014543
229	0xbf5d46ea	-0.8643633
230	0xbf4b8eba	-0.7951466
231	0xbe80e52d	-0.25174847
232	0xbd0d3f0a	-0.034483947
233	0xbbb8e993	-0.0056430786
234	0x3e7a2b00	0.24430466
235	0x3f39eee7	0.7263016
236	0x3e8e405c	0.27783477
237	0x3e952fc7	0.29138014
238	0x3eaffccf	0.34372565
239	0xbf0a112e	-0.53932464
240	0xbf419aeb	-0.7562701
241	0xbf0267a7	-0.5093941
242	0xbe621f0e	-0.22082159
243	0x3ea5f6e5	0.32414928
244	0x3f3e221a	0.74270785
245	0x3ed13e3f	0.40867803
246	0xbb81b0b4	-0.003957832
247	0x3f0dcd97	0.5539183
248	0x3e61a7fb	0.22036736
249	0xbd76ca11	-0.0602513
250	0xbf83de33	-1.0302185
251	0xbf0be0fc	-0.54640174
252	0x3bb181f4	0.005417103
253	0x3efdfaf2	0.4960552
254	0x3e8b9a20	0.27266026
255	0xbee86a1b	-0.45393452

linear_modules.1.weight f4 [16, 32]
0	0xbf06a5c7	-0.52596706
1	0x3f87708d	1.0581223
2	0xbe2d1d50	-0.16905713
3	0x3fa67e4b	1.3007292
4	0xbf00f514	-0.5037396
5	0x3f0b70b9	0.54468876
6	0xbddacb5b	-0.10683318
7	0x3ed2f8ea	0.4120553
8	0x3e7d7fdf	0.2475581
9	0x3f8c1d42	1.0946429
10	0x3f57f7d5	0.84362537
11	0x3eb83d0d	0.35984078
12	0x3eddcf4a	0.43322212
13	0x3d92f445	0.07175497
14	0xbe2b1823	-0.16708426
15	0x3f4b2b76	0.7936319
16	0x3eece888	0.46271157
17	0x3f043c41	0.5165444
18	0xbdadbffa	-0.08483882
19	0xbeb784eb	-0.35843596
20	0x3dce8f2b	0.10085901
21	0x3e913347	0.28359434
22	0xbe871ee0	-0.26390743
23	0xbeceff1e	-0.40429014
24	0x3e1c1fc6	0.15246496
25	0xbf8103f6	-1.0079334
26	0xbfa57ceb	-1.2928747
27	0x3f00c4e2	0.5030042
28	0xbebceb4a	-0.3689826
29	0x3e6fa351	0.23402144
30	0xbdbd33ed	-0.0923842
31	0xbedf4ebe	-0.43614763
32	0x3e0d3374	0.13789159
33	0x3fb37c28	1.4022264
34	0xbe99fe9c	-0.30077064
35	0xbea055b2	-0.3131538
36	0x3f33e365	0.7026885
37	0x3f438433	0.76373595
38	0xbed5c136	-0.4174897
39	0x3e9f9f8e	0.31176418
40	0xbf0b5777	-0.54430336
41	0xbeba4d7d	-0.36387244
42	0x3f24817f	0.64260095
43	0x3e2a2c2b	0.16618411
44	0x3f098323	0.53715724
45	0xbdcd3c10	-0.10021222
46	0xbed0ad2b	-0.40757117
47	0xbe7e5a7f	-0.24839209
48	0xbe58b4b2	-0.2116268
49	0xbd14508f	-0.03620964
50	0x3eb50317	0.3535392
51	0x3e8a4f9a	0.27013856
52	0xbeb57667	-0.35441896
53	0x3e852660	0.2600584
54	0xbee96deb	-0.45591673
55	0x3f3a0185	0.7265857
56	0x3ebcf8b7	0.36908504
57	0x3c9607b0	0.018314213
58	0x3dc38d96	0.0954849
59	0x3f5b5ce0	0.8568859
60	0x3dba0532	0.09083022
61	0xbf2b0d24	-0.66816926
62	0x3f15c6fd	0.5850676
63	0xbe3a9d56	-0.18224081
64	0x3e970732	0.29497677
65	0xbf00692b	-0.50160474
66	0x3f4618a9	0.7738138
67	0x3f449a42	0.7679788
68	0x3d2513d4	0.040302113
69	0x3f292502	0.66072094
70	0xbefc668c	-0.49296987
71	0xbd15c249	-0.036562238
72	0xbf4a99bb	-0.79140824
73	0xbe8a92d8	-0.27065158
74	0xbf3eea89	-0.7457662
75	0xbebd8f3a	-0.37023336
76	0xbf27967a	-0.65463984
77	0x3e28b143	0.1647387
78	0xbf26d8da	-0.6517464
79	0x3f4cabab	0.79949445
80	0xbe6e0f75	-0.23248084
81	0xbeddb92d	-0.4330534
82	0x3e98488d	0.29742852
83	0x3f7b1cc5	0.98090774
84	0x3e44234c	0.1915409
85	0x3edfe637	0.43730327
86	0xbee283f9	-0.44241312
87	0x3f1e2bc6	0.6178554
88	0x3dfe8b1e	0.12428878
89	0x3fa46c78	1.2845602
90	0x3d11ff52	0.035643883
91	0x3f3d6689	0.7398458
92	0x3ed1e3a6	0.40993994
93	0x3f421c5b	0.75824517
94	0xbdac4a88	-0.08412653
95	0x3eac3148	0.3363135
96	0x3e9b7aed	0.30367222
97	0xbe2ef27f	-0.17084692
98	0xbe83e9fd	-0.25764456
99	0xbe1c7d9f	-0.15282296
100	0xbf0146e4	-0.50498796
101	0xbf80b2c3	-1.0054554
102	0x3f62d1a1	0.8860112
103	0xbeee140e	-0.46499676
104	0x3d491999	0.049096677
105	0x3e98fcf1	0.2988048
106	0xbd0eb718	-0.03484258
107	0x3f319779	0.69371754
108	0x3e2821dd	0.16419168
109	0x3f0ab16f	0.5417699
110	0x3f1b6599	0.607019
111	0xbdea8ad3	-0.1145226
112	0xbe21e77f	-0.15810965
113	0x3e2acc1f	0.16679429
114	0x3e24cb8b	0.1609327
115	0x3e2989de	0.16556498
116	0x3f6e9309	0.9319311
117	0x3ef51a15	0.47871462
118	0x3ed0f29c	0.40810096
119	0xbf0889ed	-0.5333546
120	0x3eb91fd7	0.36157104
121	0x3f1d06af	0.61338323
122	0xbfb5459e	-1.416187
123	0x3e7367f7	0.23770128
124	0x3e2171c3	0.15766053
125	0x3d3d028b	0.046145003
126	0xbe91bea4	-0.2846576
127	0x3e305b3f	0.17222308
128	0x3f415614	0.7552197
129	0xbedb6719	-0.42852095
130	0x3ec362f8	0.38161445
131	0xbf22bb2c	-0.6356685
132	0xbf394855	-0.72375995
133	0xbf34f347	-0.7068371
134	0xbec49d1d	-0.38401118
135	0x3e507170	0.20355773
136	0x3ee5f0ec	0.4491037
137	0x3d94aa24	0.07259014
138	0xbf916d67	-1.1361512
139	0xbd31640c	-0.043308303
140	0x3eb6fee5	0.35741344
141	0x3f115fee	0.56787
142	0x3ee46a19	0.44612196
143	0xbe2b9882	-0.16757396
144	0xbfaa02fc	-1.3282161
145	0x3f45834d	0.77153474
146	0xbe36774b	-0.17818944
147	0x3ef7ea0b	0.48420748
148	0x3d06f6fa	0.03295038
149	0x3e4d2a7a	0.20035735
150	0x3f934783	1.1506199
151	0x3f00d32d	0.5032223
152	0xbf295c09	-0.6615606
153	0xbe6fc5f3	-0.23415355
154	0x3f8700d0	1.0547123
155	0x3f38c55f	0.72176164
156	0x3e8031a0	0.2503786
157	0xbf2117b9	-0.6292682
158	0x3f0af7e3	0.54284495
159	0xbd9b9f21	-0.07598711
160	0x3dcace11	0.09902585
161	0xbf1cf44b	-0.6131026
162	0x3f3cbf6c	0.73729587
163	0x3ee1b793	0.4408537
164	0x3cb1571e	0.021647986
165	0x3f9f6ec2	1.2455676
166	0x3e40d221	0.18830158
167	0xbf34203a	-0.70361674
168	0x3eb31865	0.3497955
169	0x3e4a40c5	0.1975127
170	0x3cca8f48	0.024726525
171	0xbece62e1	-0.40309814
172	0xbed30629	-0.41215637
173	0xbd1dad6a	-0.03849546
174	0x3f01ab2d	0.5065182
175	0x3f11c84a	0.5694624
176	0x3ec8c353	0.3921152
177	0x3f66dd51	0.9018145
178	0x3e66f74d	0.22555275
179	0xbe658ee3	-0.22417788
180	0x3ebcdc3f	0.36886784
181	0xbe2710c2	-0.16314986
182	0x3fc62767	1.5480775
183	0x3f03f766	0.51549375
184	0xbe8c560e	-0.27409405
185	0xbe0dc0bc	-0.13843054
186	0x3f2a3802	0.6649171
187	0xbc42d2be	-0.011891065
188	0xbf06299e	-0.5240725
189	0xbe628f57	-0.22124992
190	0xbe113f34	-0.14184266
191	0xbdf1a75c	-0.117994994
192	0xbebb7206	-0.3661043
193	0x3f8c96cd	1.0983521
194	0x3e806fb7	0.25085232
195	0x3f429820	0.76013374
196	0x3f4aadf0	0.7917166
197	0xbe974c61	-0.2955046
198	0x3f2c777f	0.67369837
199	0x3f016262	0.50540745
200	0xbe185102	-0.14874652
201	0x3e52160e	0.20516226
202	0x3ebe90b5	0.37219778
203	0xbecf792b	-0.4052213
204	0x3e0866bd	0.13320442
205	0x3f34351a	0.70393527
206	0x3f566ea1	0.83762556
207	0x3f0a521d	0.54031545
208	0xbe1214cb	-0.14265744
209	0xbe2b233c	-0.1671266
210	0xbf00e7ff	-0.50354
211	0x3f1e018f	0.6172113
212	0xbd35c7a9	-0.044379864
213	0xbe9aa4ad	-0.30203763
214	0x3ddb0c58	0.10695714
215	0xbe5dad77	-0.21648203
216	0x3f2880db	0.6582162
217	0xbefe02e9	-0.49611595
218	0x3f4e13ce	0.8049897
219	0x3facbc00	1.3494873
220	0x3e289945	0.16464718
221	0xbe2b49d1	-0.16727377
222	0x3d0882e1	0.03332794
223	0xbf1218c5	-0.57069045
224	0x3f633b31	0.88762194
225	0xbf3e4653	-0.74326056
226	0x3d7289f3	0.05921359
227	0xbf675b8f	-0.9037408
228	0x3f10d7ff	0.56579584
229	0xbf28392c	-0.6571224
230	0x3f0a38a8	0.539927
231	0xbdf7f51e	-0.12107299
232	0x3f0f6cce	0.560254
233	0x3f74abf8	0.95574903
234	0xbefaece1	-0.4900885
235	0xbec3ac00	-0.38217163
236	0x3f7241cc	0.9463165
237	0xbe57eeff	-0.21087264
238	0x3e0a28dc	0.13492149
239	0x3dcdce63	0.10049131
240	0x3e9a8799	0.30181578
241	0xbe61c90e	-0.22049353
242	0xbef8aeb2	-0.48570782
243	0xbfa6e6f0	-1.3039227
244	0x3eab1f45	0.33422294
245	0x3f115333	0.56767577
246	0x3dd8fdb6	0.105952665
247	0x3e9179f3	0.28413352
248	0xbf47ae25	-0.780001
249	0xbec9cfb5	-0.3941628
250	0xbf0aeea2	-0.54270375
251	0xbf965675	-1.1745135
252	0x3e47950f	0.19490455
253	0xbe323453	-0.17402773
254	0xbd75656f	-0.059911188
255	0x3ebefaac	0.37300622

linear_modules.2.weight f4 [26, 16]
0	0x3db67290	0.0890857
1	0xbe1a9f28	-0.15099776
2	0xbec62385	-0.38698974
3	0x3ed4d964	0.41572106
4	0x3cf66ab2	0.030080173
5	0xbf5986ed	-0.84971505
6	0x3ecf259a	0.40458375
7	0xbee4d81f	-0.44696137
8	0x3e42ead1	0.19034888
9	0xbe1cb860	-0.15304708
10	0x3eb932e3	0.36171636
11	0x3db4cb12	0.08827795
12	0xbe14b9a0	-0.14523935
13	0xbc9613d6	-0.018320005
14	0x3e8ea9db	0.27863964
15	0x3e53029b	0.20606463
16	0xbefdc18c	-0.49561727
17	0x3e9f8ff3	0.31164512
18	0xbddadaae	-0.10686241
19	0xbe4a8e48	-0.19780838
20	0xbe17fdc3	-0.14842896
21	0x3e171874	0.14755422
22	0x3eac612d	0.3366789
23	0x3f2947f3	0.6612541
24	0x3f11b434	0.56915593
25	0xbe7f46cf	-0.24929355
26	0x3a7d15f5	0.0009654456
27	0x3ba6ae9d	0.0050867335
28	0xbfa370e0	-1.2768822
29	0xbed5fd02	-0.41794592
30	0x3ef91ff7	0.486572
31	0xbf627cdc	-0.8847177
32	0x3e2facad	0.17155714
33	0x3ea725eb	0.32646117
34	0xbe9a6758	-0.3015697
35	0xbdc8086c	-0.09767231
36	0xbee39139	-0.44446734
37	0x3f00b9c7	0.50283474
38	0x3ea2b5b9	0.31779268
39	0xbf814b04	-1.0101018
40	0xbe548747	-0.20754729
41	0x3ea62bf6	0.32455415
42	0xbf415df0	-0.7553396
43	0x3e173926	0.14767894
44	0xbf0a9fc3	-0.5415003
45	0xbf3cbc30	-0.7372465
46	0x3f17e900	0.59339905
47	0x3ea52c50	0.3226037
48	0xbe5361f3	-0.20642833
49	0xbedfc0a6	-0.43701667
50	0xbf2772b7	-0.65409416
51	0x3e1814b7	0.14851652
52	0x3ea71fec	0.32641542
53	0x3ec02a8e	0.37532467
54	0xbe23e170	-0.16003966
55	0xbe15ff30	-0.14648128
56	0x3f0f237f	0.5591354
57	0xbec3b36e	-0.3822283
58	0xbe86299c	-0.2620362
59	0x3f00ba12	0.5028392
60	0xbf1a06b1	-0.6016646
61	0x3e4fcd8e	0.20293257
62	0xbd3827f8	-0.044959992
63	0xbe0b0d07	-0.13579188
64	0x3e84d768	0.25945592
65	0x3eef525e	0.4674253
66	0x3eb48126	0.35254782
67	0xbf586a8c	-0.8453758
68	0xbee49686	-0.4464609
69	0xbd75c0db	-0.059998374
70	0x3db75a58	0.089527786
71	0xbe0943e2	-0.13404801
72	0x3e628a77	0.22123133
73	0x3e16e7ef	0.14736913
74	0xbe88bf2f	-0.26708362
75	0xbea76129	-0.32691315
76	0xbf425ca6	-0.7592262
77	0xbf9b8a73	-1.2151626
78	0x3efe0fb9	0.4962137
79	0x3e8a4712	0.27007347
80	0x3f37e0f0	0.718276
81	0x3e65edf0	0.22454047
82	0xbe908cec	-0.28232515
83	0xbf5eb31e	-0.8699206
84	0xbf1020c8	-0.5630002
85	0xbf3e0056	-0.7421926
86	0x3f1e43d2	0.61822236
87	0xbf02d9f3	-0.51113814
88	0x3f2e8621	0.68173414
89	0xbe7718d7	-0.2413057
90	0x3e4ed4e4	0.20198399
91	0xbe807c87	-0.25095007
92	0x3f4685fa	0.7754818
93	0x3ee3adc0	0.44468498
94	0xbda57459	-0.08078832
95	0xbf01d2ff	-0.5071258
96	0x3ea98c8c	0.3311504
97	0x3eccd80c	0.4000858
98	0x3d2f75b2	0.042836852
99	0x3f284a87	0.6573872
100	0xbf52dc24	-0.8236716
101	0xbf1f1988	-0.6214833
102	0xbedffe5e	-0.43748754
103	0x3db646ed	0.08900247
104	0x3db65a55	0.08903948
105	0x3e6cbaad	0.23118086
106	0xbd60fdb5	-0.054929454
107	0x3dfd39c4	0.123645335
108	0x3e477788	0.19479191
109	0xbcf7e2b2	-0.030259464
110	0x3ec564ec	0.3855356
111	0xbe9ea9a1	-0.30988792
112	0xbf46b82a	-0.7762476
113	0x3e5608d4	0.20901805
114	0xbe4e8745	-0.20168789
115	0xbdaf1061	-0.08548046
116	0x3f3e0a64	0.74234605
117	0xbe11a48e	-0.14222929
118	0x3ef9b000	0.4876709
119	0x3e3be8d8	0.18350542
120	0xbd67c144	-0.056580797
121	0xbdb52c67	-0.0884636
122	0x3f42e202	0.7612611
123	0xbf179f93	-0.59227866
124	0xbf639267	-0.8889527
125	0x3ea6db2e	0.32589096
126	0xbdb538c8	-0.08848721
127	0xbea03d77	-0.31296894
128	0x3ede2f97	0.43395683
129	0x3e924d0a	0.285744
130	0x3e6b86fc	0.23000711
131	0xbf1d0b31	-0.613452
132	0x3ee41e4f	0.44554374
133	0x3f012dec	0.50460696
134	0xbcc447bd	-0.023959989
135	0xbf5c449b	-0.86042184
136	0xbf66a48f	-0.90094846
137	0xbf8b6bb1	-1.089224
138	0xbf1084ed	-0.5645283
139	0x3f2dd60e	0.67904747
140	0x3e068fb9	0.13140763
141	0x3d5d67d2	0.05405409
142	0xbf2aab3b	-0.66667527
143	0xbea707cf	-0.32623145
144	0x3f70fc3a	0.9413487
145	0xbe878768	-0.26470494
146	0x3e17ecf6	0.14836487
147	0x3f019356	0.5061544
148	0xbf11105e	-0.566656
149	0x3eb58cf4	0.354591
150	0x3f0ce970	0.550437
151	0xbe806652	-0.25078064
152	0xbee3eb8c	-0.44515646
153	0xbec75e91	-0.38939336
154	0x3e1a940a	0.15095535
155	0x3ec5587b	0.38544068
156	0x3ee9e233	0.4568039
157	0xbcf4df17	-0.029891534
158	0xbf0a5571	-0.54036623
159	0xbf49db7e	-0.78850543
160	0xbf9416cc	-1.1569457
161	0x3e0967cf	0.13418506
162	0xbe17cb47	-0.14823638
163	0xbf0c3e2a	-0.54782355
164	0x3f091433	0.53546447
165	0x3e545e13	0.20739011
166	0xbd89c160	-0.067263365
167	0x3cf32735	0.029681781
168	0x3f1f8c05	0.6232303
169	0xbdcfaae9	-0.101400204
170	0x3e512a85	0.20426376
171	0xbca1f32b	-0.019769272
172	0x381c3362	3.7241152e-05
173	0xbf70c4f3	-0.9405052
174	0xbf3e86e0	-0.7442455
175	0x3e549fab	0.20764033
176	0x3db616a1	0.08891035
177	0x3dfc30e8	0.123140156
178	0xbeb3c59b	-0.35111699
179	0xbed264e7	-0.41092607
180	0x3f4a73b0	0.79082775
181	0x3f354338	0.7080569
182	0xbcf7dc94	-0.030256547
183	0xbf2ea4b2	-0.68220055
184	0xbf1d2df1	-0.61398226
185	0x3edadbe5	0.4274589
186	0xbfeb8619	-1.8400298
187	0x3ec4b8bd	0.38422194
188	0x3f59456a	0.8487154
189	0x3d8c924f	0.06863844
190	0xbe3282ce	-0.1743271
191	0xbf0046be	-0.50107944
192	0xbf017595	-0.5057004
193	0xbf576ee7	-0.841536
194	0xbe35a67b	-0.17739289
195	0x3f06d53a	0.5266911
196	0xbe75cae7	-0.24003182
197	0xbeb1b998	-0.3471191
198	0x3d6e704e	0.05821257
199	0x3ec02342	0.375269
200	0x3d2aa801	0.041664127
201	0xbdc1ba41	-0.09459353
202	0x3f14580d	0.57946855
203	0xbf05f1d1	-0.5232211
204	0x3ea7de58	0.32786822
205	0xbf9315a4	-1.1490979
206	0x3e703ed2	0.23461464
207	0x3eacb8b4	0.33734667
208	0xbefe2548	-0.49637818
209	0xbeae5825	-0.34051624
210	0x3df0eed3	0.11764302
211	0xbf1a1ff4	-0.60205007
212	0x3eb74e8b	0.3580211
213	0xbf089549	-0.5335279
214	0x3e1d5359	0.15363826
215	0x3ee1f6b0	0.4413352
216	0x3d8ce256	0.06879108
217	0x3d84ac73	0.064782046
218	0xbe1b4893	-0.15164404
219	0xbe897939	-0.26850298
220	0xbf47c7dc	-0.78039336
221	0x3ea65942	0.32489973
222	0x3d1b8050	0.037964165
223	0x3f011856	0.5042776
224	0x3e87eb56	0.26546735
225	0xbf1540e5	-0.58302146
226	0xbe18d6e2	-0.14925721
227	0xbf0d2ae1	-0.55143553
228	0xbf58597e	-0.84511554
229	0x3e829d20	0.25510502
230	0xbd800128	-0.062502205
231	0xbebeb7e1	-0.37249663
232	0x3e0df90a	0.13864532
233	0x3c03d567	0.008046485
234	0x3e03dc94	0.12877113
235	0x3ee285ac	0.4424261
236	0xbf791774	-0.9730141
237	0xbd6da4bd	-0.058018435
238	0x3f14a737	0.5806765
239	0x3e5fcfe5	0.21856649
240	0xbe55d170	-0.20880675
241	0xbdb70d94	-0.08938137
242	0x3ec70104	0.38867962
243	0xbf30628c	-0.6890037
244	0xbf0f7131	-0.5603209
245	0xbf0cb498	-0.54963064
246	0xbeccf9f2	-0.40034443
247	0xbf103d48	-0.5634351
248	0x3f642ce1	0.8913098
249	0xbda4472c	-0.080213875
250	0xbe19420d	-0.14966603
251	0xbf09b21d	-0.53787404
252	0x3e1c496f	0.15262388
253	0x3f7242a1	0.9463292
254	0x3ebc3d1d	0.36765376
255	0xbe867289	-0.26259258

exp_avg f4 [32, 100]
0	0x367f11b2	3.800826e-06
1	0xb72642de	-9.90994e-06
2	0xb8133486	-3.5096447e-05
3	0x37a94c25	2.0181827e-05
4	0x37447587	1.1709874e-05
5	0xb8002469	-3.0551488e-05
6	0x37716c14	1.4389883e-05
7	0xb6eef430	-7.12138e-06
8	0x37e2f0fa	2.7053513e-05
9	0x37e1872a	2.688503e-05
10	0x372e3ae6	1.0384922e-05
11	0xb928f74f	-0.00016113858
12	0xb9e13b06	-0.0004295932
13	0xb8f5a46c	-0.00011713136
14	0x3918544c	0.00014527253
15	0x37b2966d	2.1289301e-05
16	0x39535491	0.00020154032
17	0x37070eeb	8.0501e-06
18	0x3970284c	0.00022903195
19	0x38c7386d	9.4995696e-05
20	0x3712203c	8.709783e-06
21	0xb92a056c	-0.00016214483
22	0xb9cf0765	-0.00039487626
23	0x393700af	0.00017452495
24	0x39ea3ce7	0.00044677334
25	0x3a05c77c	0.0005103273
26	0x39db76b8	0.00041859387
27	0x395b2c96	0.00020902077
28	0x3a0d562f	0.00053915655
29	0x3905cdc3	0.0001276052
30	0xb78b85ea	-1.663245e-05
31	0xb618115e	-2.2659874e-06
32	0x39c7a8da	0.00038082042
33	0x3a379a2b	0.0007003869
34	0x3aa35e40	0.0012464002
35	0x3ab1db17	0.0013569322
36	0x3a45ebe2	0.0007550103
37	0x397e05c3	0.00024225474
38	0x3a0bec37	0.0005337628
39	0x38b3fb3f	8.582183e-05
40	0xb8740500	-5.817879e-05
41	0x399be0d0	0.00029731402
42	0x398d3c8f	0.00026938735
43	0x3a0f259a	0.000546062
44	0x3a9940b0	0.0011692252
45	0x3a85dd60	0.001021307
46	0x3a316a4c	0.00067678536
47	0x3829c74f	4.047836e-05
48	0x3918cd81	0.00014572406
49	0x384be3d4	4.8611153e-05
50	0xb82bc179	-4.0949762e-05
51	0x38478099	4.7565063e-05
52	0x39660e83	0.00021939915
53	0x3a717836	0.0009211333
54	0x39b063b0	0.0003364361
55	0x3a437569	0.0007456155
56	0x3a148fe1	0.00056671916
57	0xb95c0361	-0.00020982094
58	0x38868865	6.4150234e-05
59	0xb695d077	-4.4648145e-06
60	0x37deb469	2.6548472e-05
61	0x3912bfd7	0.00013995111
62	0x39ed4e1f	0.00045262367
63	0x3a8a0468	0.0010529878
64	0x3a295010	0.00064587686
65	0x3a1596fc	0.00057063974
66	0x39f4f0f6	0.00046718837
67	0xb8f232eb	-0.000115489434
68	0xb912b42b	-0.00013990763
69	0xb8695965	-5.5634784e-05
70	0xb5a8cf35	-1.2577281e-06
71	0x390acee5	0.0001323778
72	0x3a4bf221	0.00077799155
73	0x3a949e89	0.0011338751
74	0x3a5804e6	0.0008240476
75	0x39c6b489	0.00037900012
76	0x398661d3	0.00025631356
77	0x397a99a4	0.00023899094
78	0x38f7177e	0.000117822536
79	0x382c23e7	4.1041432e-05
80	0x38a39e22	7.8019e-05
81	0x39a66f2c	0.00031744817
82	0x3a1441b8	0.0005655545
83	0x3a5252de	0.00080232124
84	0x3a2fa010	0.00066995714
85	0x38c1d929	9.2434064e-05
86	0x3972ae85	0.00023143932
87	0x39982122	0.00029016385
88	0x3904ec7d	0.000126766
89	0x381de6ec	3.764678e-05
90	0x3810024e	3.433442e-05
91	0x38b8c6f1	8.8108594e-05
92	0x37c7b337	2.3806102e-05
93	0x389f3188	7.590937e-05
94	0x38d16b3c	9.9858706e-05
95	0xb84ad7f0	-4.836166e-05
96	0x37236ab5	9.740402e-06
97	0x37cc7932	2.4375131e-05
98	0x378c7105	1.674193e-05
99	0x369a53dd	4.5993206e-06
100	0xb5e01a9b	-1.6697044e-06
101	0xb53f5db6	-7.128941e-07
102	0x36c8ade7	5.9807094e-06
103	0x37c15b29	2.3049843e-05
104	0x3678510e	3.700206e-06
105	0x3740fe54	1.1503307e-05
106	0x368b8315	4.1577828e-06
107	0x3844913e	4.686531e-05
108	0x3831354d	4.224973e-05
109	0x366f67e6	3.5674252e-06
110	0xb7420201	-1.1563768e-05
111	0xb827c3ee	-3.9998376e-05
112	0xb8c60e3e	-9.4440285e-05
113	0xb9534ecc	-0.00020151882
114	0xb9f59e04	-0.00046847772
115	0xb993b8e3	-0.00028175776
116	0xb86fff37	-5.7219728e-05
117	0xb6a977e6	-5.0505505e-06
118	0xb995bd6a	-0.0002856062
119	0xb8c85c50	-9.553938e-05
120	0xb8b8faa2	-8.820488e-05
121	0xb982f390	-0.00024977
122	0xb9222eb8	-0.00015466928
123	0x380e22ba	3.388778e-05
124	0xb5eca15c	-1.7630332e-06
125	0xba3ebf62	-0.0007276443
126	0xba1e06fb	-0.0006028262
127	0xb9ad27d5	-0.00033026809
128	0xba8842c9	-0.001039588
129	0xb9a8e5b5	-0.00032214602
130	0xb9466078	-0.00018918689
131	0xba39a78a	-0.0007082155
132	0xba453c2a	-0.0007523919
133	0xb8fa478a	-0.00011934254
134	0xb978f599	-0.00023742615
135	0xba392cd3	-0.0007063869
136	0xb99f48df	-0.00030381136
137	0x39045f2f	0.0001262396
138	0xba0404df	-0.0005036126
139	0xb9436014	-0.00018632441
140	0xb7e39e45	-2.7134209e-05
141	0xba3783bf	-0.00070005277
142	0xba86380f	-0.0010240095
143	0xba587a37	-0.00082579575
144	0xbab3bf58	-0.0013713641
145	0xbaaf5a9c	-0.0013378444
146	0xba869bdb	-0.0010269837
147	0x37968401	1.7942863e-05
148	0xba03c52c	-0.00050266343
149	0xb91cd79b	-0.00014957639
150	0xb853718b	-5.0412065e-05
151	0xb9ead4e5	-0.00044790577
152	0xba6087b5	-0.0008565144
153	0xba856573	-0.0010177329
154	0xba8c4326	-0.0010701164
155	0xbaa08cb1	-0.001224896
156	0xba7ced68	-0.00096484134
157	0x382dad0b	4.1407573e-05
158	0xba10f23c	-0.000552926
159	0xb89cd8c2	-7.479034e-05
160	0xb97759d6	-0.00023589222
161	0xba66610e	-0.0008788266
162	0xbab3c15e	-0.0013714244
163	0xba8fa494	-0.0010959082
164	0xba08bc43	-0.00052160415
165	0xba13a942	-0.00056328264
166	0xb986fd75	-0.00025747312
167	0x39927703	0.0002793596
168	0xb81ea80f	-3.7826652e-05
169	0xb7a3df34	-1.9535051e-05
170	0xb92cd898	-0.00016483886
171	0xba921eb5	-0.0011148067
172	0xbabb4639	-0.0014287896
173	0xba04d830	-0.0005067615
174	0xb9b9c7ff	-0.00035434958
175	0xb969a369	-0.00022281487
176	0xb82736a6	-3.9866798e-05
177	0x38d7b89b	0.00010286384
178	0x37a73a95	1.993523e-05
179	0x3851df23	5.0037295e-05
180	0xb69b7986	-4.633507e-06
181	0xb9b6a218	-0.00034834514
182	0xba02422b	-0.0004968966
183	0x3899b28c	7.3288655e-05
184	0xb86d8755	-5.663124e-05
185	0x3894f269	7.102342e-05
186	0x389783b0	7.22477e-05
187	0xb8fbe788	-0.00012011739
188	0xb9235de1	-0.00015579864
189	0xb63224a9	-2.6545406e-06
190	0xb6c2c904	-5.805052e-06
191	0xb8251d39	-3.936628e-05
192	0xb7bec27d	-2.274033e-05
193	0x38ac9c2d	8.230689e-05
194	0x38050392	3.1712996e-05
195	0x38d28b31	0.00010039507
196	0x38cad51d	9.671806e-05
197	0x3805d9ac	3.1912394e-05
198	0xb7a1d5a1	-1.9292174e-05
199	0x35ebc2ef	1.7565598e-06
200	0xb6457949	-2.9425885e-06
201	0xb686c1aa	-4.0160567e-06
202	0x383134b3	4.224917e-05
203	0x38afd6cf	8.3846615e-05
204	0x38bca981	8.996111e-05
205	0x38f72bba	0.000117860225
206	0x38e5109f	0.00010922667
207	0x381b0dab	3.696761e-05
208	0xb8499dc4	-4.8069065e-05
209	0xb68bf1be	-4.1706653e-06
210	0xb659654f	-3.239449e-06
211	0x3825d8af	3.9540868e-05
212	0x396bcc54	0.00022487465
213	0x3a1cb4ff	0.0005977898
214	0x3a5938c8	0.0008286354
215	0x3a4d3118	0.0007827445
216	0x3a3e058e	0.00072487525
217	0x39e95981	0.0004450791
218	0x381c54c0	3.7272228e-05
219	0xb71c5224	-9.317449e-06
220	0x370cd490	8.394141e-06
221	0x3857641a	5.135322e-05
222	0x399fc266	0.0003047168
223	0x3a9479d9	0.0011327817
224	0x3a8a1649	0.0010535206
225	0x3aa38317	0.0012474981
226	0x3ac3a139	0.0014925367
227	0x3a9be685	0.0011894262
228	0x3a47cbc5	0.00076216116
229	0x391e315f	0.00015086446
230	0xb56554ca	-8.543253e-07
231	0x39b30d5b	0.0003415149
232	0x3a8bab57	0.0010655922
233	0x3b0186e3	0.0019764237
234	0x3b00d200	0.001965642
235	0x3abcf2fd	0.0014415678
236	0x3a9c1ffd	0.0011911389
237	0x3a1072ae	0.00055102527
238	0x39b38bb2	0.00034245622
239	0xb794f3ae	-1.7756447e-05
240	0x38a17b9f	7.7001045e-05
241	0x3a91a512	0.0011111817
242	0x3af1b7b1	0.0018441585
243	0x3b1ae088	0.0023632366
244	0x3aecae34	0.0018057288
245	0x3a487975	0.0007647493
246	0x39fb1418	0.00047889422
247	0x37ecf5fa	2.8247934e-05
248	0xb7e81ec7	-2.7670887e-05
249	0xb8f20780	-0.00011540856
250	0x37e210b0	2.694907e-05
251	0x3a0941d8	0.0005235947
252	0x3a960a09	0.0011447083
253	0x3abb86d6	0.0014307152
254	0x3aa9cd5e	0.0012954881
255	0x3a90fbef	0.001106141

exp_avg_sq f4 [32, 100]
0	0x2fa347df	2.9700595e-10
1	0x326ae311	1.3672222e-08
2	0x3331154e	4.12304e-08
3	0x339a8bdb	7.1966234e-08
4	0x33d5cde4	9.956037e-08
5	0x34439245	1.8214003e-07
6	0x346c3d5e	2.2001538e-07
7	0x34569032	1.9982761e-07
8	0x33b3194b	8.339938e-08
9	0x3183cacd	3.8356576e-09
10	0x323d2bbc	1.1011192e-08
11	0x34ec237e	4.398425e-07
12	0x35d0ceba	1.5557373e-06
13	0x364d3a21	3.0581216e-06
14	0x36b49816	5.382123e-06
15	0x37144895	8.838387e-06
16	0x373b5703	1.1166328e-05
17	0x3709ecbc	8.220955e-06
18	0x3635bffa	2.7082847e-06
19	0x33c69c0c	9.248478e-08
20	0x3341c6a9	4.5116995e-08
21	0x35d94933	1.6189064e-06
22	0x36ca6377	6.0316484e-06
23	0x37528042	1.2546838e-05
24	0x37a75717	1.9948506e-05
25	0x37e36ec7	2.7112093e-05
26	0x37fba3d3	2.9997818e-05
27	0x37c557cb	2.3525112e-05
28	0x370b75fd	8.312517e-06
29	0x34901a1e	2.6841093e-07
30	0x33e238c0	1.0534268e-07
31	0x366824c8	3.4592103e-06
32	0x375d4dab	1.319071e-05
33	0x37ce5512	2.4596728e-05
34	0x3807b8a0	3.2358454e-05
35	0x3813f884	3.527898e-05
36	0x38069d18	3.2094395e-05
37	0x37dfe318	2.668942e-05
38	0x37430ab0	1.1625394e-05
39	0x34d68886	3.995994e-07
40	0x344a807a	1.8859456e-07
41	0x36d9b165	6.4877554e-06
42	0x37b104bc	2.1102249e-05
43	0x37ffa819	3.0476645e-05
44	0x3815756f	3.5633737e-05
45	0x381e87d1	3.7796624e-05
46	0x37fb6d81	2.9972523e-05
47	0x37c56b47	2.3534185e-05
48	0x37440ce1	1.1685509e-05
49	0x34e5a312	4.2773223e-07
50	0x34952913	2.7783298e-07
51	0x37121fc2	8.709672e-06
52	0x37b31d6b	2.1352162e-05
53	0x37d57720	2.544705e-05
54	0x37f6655b	2.9372683e-05
55	0x37ff6c39	3.0448764e-05
56	0x37d06092	2.4840501e-05
57	0x37a9fb41	2.026337e-05
58	0x3714dd6d	8.873042e-06
59	0x349c72f2	2.9140898e-07
60	0x34b6ee80	3.4073673e-07
61	0x371a3420	9.191252e-06
62	0x37953c97	1.7790398e-05
63	0x3795c869	1.7855507e-05
64	0x379e772f	1.8890567e-05
65	0x37a2efc9	1.9423564e-05
66	0x37a026f6	1.9091629e-05
67	0x3786a869	1.6052467e-05
68	0x36be76bc	5.6762638e-06
69	0x34365220	1.6979948e-07
70	0x348dd4ca	2.641812e-07
71	0x36ea63fc	6.985383e-06
72	0x375618a0	1.2761127e-05
73	0x3749caec	1.202778e-05
74	0x373c2b61	1.1215773e-05
75	0x373eef77	1.1380637e-05
76	0x3748ec7b	1.1975989e-05
77	0x3718c28f	9.105205e-06
78	0x36362dfc	2.714688e-06
79	0x339dd6ef	7.3499784e-08
80	0x33ca50d4	9.4210606e-08
81	0x3615ee08	2.2341283e-06
82	0x3694132e	4.4129765e-06
83	0x3688a54b	4.0723585e-06
84	0x366adee6	3.4998461e-06
85	0x366066d0	3.3438446e-06
86	0x3655c3f3	3.185353e-06
87	0x361883f5	2.2726574e-06
88	0x352d899e	6.464778e-07
89	0x32a09072	1.8692138e-08
90	0x31af123e	5.0952442e-09
91	0x33ba8f6a	8.687387e-08
92	0x3413e37b	1.3773199e-07
93	0x33eca22b	1.10191046e-07
94	0x33c330e6	9.08929e-08
95	0x33a4b179	7.669127e-08
96	0x33950204	6.93872e-08
97	0x3349e9a0	4.701144e-08
98	0x32878f64	1.5781275e-08
99	0x3051103f	7.6056844e-10
100	0x3016213e	5.461692e-10
101	0x32c860fc	2.3327168e-08
102	0x33af2557	8.1558646e-08
103	0x341058e5	1.3443385e-07
104	0x344f58b6	1.931065e-07
105	0x349f8a54	2.9716705e-07
106	0x348825dc	2.535952e-07
107	0x3432e681	1.6661399e-07
108	0x33b0a08e	8.2248434e-08
109	0x319895e5	4.4408233e-09
110	0x32c59961	2.3003567e-08
111	0x354aebe0	7.559411e-07
112	0x3636c722	2.7236024e-06
113	0x36b009e2	5.2463593e-06
114	0x36fa2f3c	7.4560794e-06
115	0x3717da3b	9.051112e-06
116	0x37100607	8.584472e-06
117	0x36d14e56	6.237805e-06
118	0x363cf1a8	2.8154845e-06
119	0x3402c157	1.217753e-07
120	0x3400fa96	1.2012092e-07
121	0x366c32c3	3.5196288e-06
122	0x373b97a7	1.1181378e-05
123	0x379cbfe4	1.8686005e-05
124	0x37ace377	2.060992e-05
125	0x37bb158d	2.2302173e-05
126	0x37d0a170	2.4870707e-05
127	0x37bff461	2.2882772e-05
128	0x3739c9f9	1.1073885e-05
129	0x34ea5408	4.3647037e-07
130	0x34a70084	3.110655e-07
131	0x371dcc9d	9.4055695e-06
132	0x37d36e4e	2.5204525e-05
133	0x3801f8e2	3.0987787e-05
134	0x38041a4d	3.1495747e-05
135	0x380dd0f4	3.3811622e-05
136	0x380e4075	3.391547e-05
137	0x380624af	3.1982254e-05
138	0x37a315cc	1.9441264e-05
139	0x3565137c	8.53375e-07
140	0x353102e9	6.5941873e-07
141	0x379626e0	1.7899496e-05
142	0x3804b948	3.164381e-05
143	0x37fc9d04	3.0113857e-05
144	0x3817ad63	3.6162684e-05
145	0x382efb28	4.171874e-05
146	0x380d530f	3.3694374e-05
147	0x37e72950	2.7556584e-05
148	0x37b24efb	2.1256032e-05
149	0x3594b9e6	1.1080963e-06
150	0x3586cccf	1.0043385e-06
151	0x37a89c37	2.0099904e-05
152	0x37c83eee	2.3871162e-05
153	0x37b7c7ac	2.190828e-05
154	0x3807f82f	3.2417647e-05
155	0x381c62e2	3.728539e-05
156	0x37fc689f	3.0089459e-05
157	0x37d794ca	2.5699283e-05
158	0x37958a0b	1.7826465e-05
159	0x3565d79f	8.562292e-07
160	0x3544a90f	7.32617e-07
161	0x37687a8c	1.385681e-05
162	0x375920bd	1.294183e-05
163	0x3710b098	8.624185e-06
164	0x378553a5	1.5893786e-05
165	0x37be6d9a	2.2700802e-05
166	0x37d01439	2.480495e-05
167	0x37ccb33a	2.4402154e-05
168	0x374b7853	1.2127758e-05
169	0x34ee412a	4.4378368e-07
170	0x34afb828	3.273028e-07
171	0x36e31ae4	6.7682577e-06
172	0x36cf9af2	6.1871187e-06
173	0x363f5b75	2.8514453e-06
174	0x36b4b865	5.3858844e-06
175	0x3738d4c8	1.1016797e-05
176	0x3773debb	1.4535787e-05
177	0x3760d95d	1.3402049e-05
178	0x36b0127b	5.24736e-06
179	0x3431614f	1.651981e-07
180	0x33c01762	8.94495e-08
181	0x35e624ee	1.7147083e-06
182	0x35d586d7	1.590898e-06
183	0x35552d27	7.941439e-07
184	0x35dddea4	1.653058e-06
185	0x365a8a88	3.2565167e-06
186	0x368cf2a8	4.200574e-06
187	0x3659e2f8	3.2467633e-06
188	0x358e4bfb	1.0601938e-06
189	0x330287b6	3.0391412e-08
190	0x319492c1	4.324051e-09
191	0x337f8d76	5.9500472e-08
192	0x333fb2db	4.463332e-08
193	0x330f2425	3.3327655e-08
194	0x33be4c22	8.861413e-08
195	0x33e0b151	1.04630665e-07
196	0x33ddc814	1.03275084e-07
197	0x33a7759e	7.797938e-08
198	0x32c62fcb	2.3071967e-08
199	0x306fd454	8.724943e-10
200	0x2ee81337	1.0553552e-10
201	0x31da5f37	6.3554597e-09
202	0x33177edb	3.52728e-08
203	0x339029e2	6.713141e-08
204	0x33ba712b	8.681885e-08
205	0x34067ec6	1.2525842e-07
206	0x3428f373	1.5734786e-07
207	0x342fd273	1.6374706e-07
208	0x338e34aa	6.62197e-08
209	0x3116b698	2.1931665e-09
210	0x3198e10b	4.4493667e-09
211	0x3473989e	2.268666e-07
212	0x35903cce	1.0746533e-06
213	0x3621bd4d	2.4101057e-06
214	0x3684a1bf	3.9527363e-06
215	0x36c49b68	5.859347e-06
216	0x3705b986	7.970613e-06
217	0x36df0e35	6.647572e-06
218	0x360ddf5f	2.1140656e-06
219	0x338d6e1b	6.585852e-08
220	0x32c68a33	2.311308e-08
221	0x35910b4a	1.0806627e-06
222	0x36a6bcde	4.9691726e-06
223	0x373ad8f0	1.1136974e-05
224	0x3792a7a4	1.748262e-05
225	0x37b9d8a8	2.2154607e-05
226	0x37bef553	2.2764003e-05
227	0x3797676b	1.804876e-05
228	0x36dcd544	6.5813383e-06
229	0x345c80eb	2.0535997e-07
230	0x3394aee8	6.923602e-08
231	0x365c04b8	3.2785301e-06
232	0x37597011	1.29603e-05
233	0x37c68068	2.3663233e-05
234	0x38003dd4	3.057516e-05
235	0x38038fc8	3.136674e-05
236	0x37ceca98	2.4651454e-05
237	0x37aa2607	2.0283287e-05
238	0x37298460	1.0104006e-05
239	0x34c0f716	3.5942566e-07
240	0x3447ff0d	1.8626106e-07
241	0x37036daa	7.833742e-06
242	0x37bcb4c0	2.2495515e-05
243	0x37f9c83f	2.977636e-05
244	0x3819ca6c	3.6666563e-05
245	0x3816d2dd	3.595917e-05
246	0x37cc2bca	2.4339086e-05
247	0x37a69cc2	1.9861738e-05
248	0x373bc839	1.11926865e-05
249	0x34dce231	4.114277e-07
250	0x34bf71d0	3.5659332e-07
251	0x37549d7f	1.2672855e-05
252	0x37e1eefa	2.6933372e-05
253	0x37ed4d77	2.8288674e-05
254	0x3805c86d	3.1896332e-05
255	0x37e9c232	2.7866194e-05

exp_avg f4 [16, 32]
0	0x3b3eea8a	0.0029131495
1	0x38e914a8	0.00011114153
2	0x3b573d1e	0.0032842825
3	0xb9b4d0f2	-0.00034487952
4	0x3b3088da	0.0026937039
5	0x3abab7e3	0.0014245476
6	0x3b2b8254	0.002617021
7	0x3ba408ac	0.0050059166
8	0x3ba0d147	0.0049077603
9	0x3a93a051	0.0011262988
10	0x3afc99a1	0.0019271859
11	0x3adaea23	0.0016701858
12	0x3b81f52b	0.003965994
13	0x3ac7b1ae	0.0015235448
14	0x3aad967d	0.0013243702
15	0x3b154173	0.0022774606
16	0x3ab9d317	0.001417729
17	0x3ae85057	0.0017724138
18	0x3aaea32d	0.0013323777
19	0x3a93a19e	0.0011263376
20	0x3a9a6cd3	0.00117817
21	0x3ba2653f	0.004955917
22	0x3ad068ef	0.0015900413
23	0x3b35bfa4	0.0027732635
24	0x3aee873d	0.0018198263
25	0xb8005ced	-3.0604122e-05
26	0x3ab1cbc5	0.0013564756
27	0x3aa3b0f0	0.0012488645
28	0x3a829e75	0.0009965437
29	0x3a9aa49e	0.0011798327
30	0x3bb9eab5	0.005673731
31	0x3bce0c9e	0.006288125
32	0xb9e2dc52	-0.0004327023
33	0xb81a557f	-3.6796086e-05
34	0x3a615900	0.0008596331
35	0x3a045452	0.0005047965
36	0xbaa68064	-0.0012703058
37	0xba765db4	-0.0009398118
38	0xba578d15	-0.0008222622
39	0xba55dfd7	-0.000815866
40	0xba8cf1f1	-0.0010753257
41	0x3954d4a2	0.00020297107
42	0x39cd7e22	0.00039194623
43	0x38b17c77	8.463201e-05
44	0xb9346abe	-0.00017205902
45	0xb85a2168	-5.2006362e-05
46	0x388d79b8	6.746076e-05
47	0x3a05fc06	0.0005111102
48	0x38ebb553	0.000112394475
49	0xb95eb6a1	-0.00021239604
50	0xba5776fa	-0.0008219328
51	0x3a5afc41	0.0008353629
52	0x3a51a3ab	0.0007997106
53	0xba8fae0e	-0.0010961907
54	0xb9900d4a	-0.0002747572
55	0x3a72beb2	0.0009259983
56	0x395d184d	0.00021085255
57	0x391a2a06	0.0001470224
58	0xba794967	-0.0009509534
59	0xb9b59218	-0.0003463186
60	0xb98d7ab8	-0.00026985048
61	0xbabe3196	-0.0014510627
62	0x3a388c87	0.0007039983
63	0xba66cdcf	-0.00088044716
64	0x3a6b6185	0.000897907
65	0xb906d68a	-0.00012859158
66	0x3bbf9a34	0.00584724
67	0xb9c9bd39	-0.0003847869
68	0x3b280293	0.00256363
69	0x3ab1c61a	0.0013563067
70	0x3b907b55	0.0044092336
71	0x3be253a6	0.0069069443
72	0x3ba0d937	0.0049087065
73	0xb96b50c2	-0.00022441431
74	0x3b17240e	0.0023062262
75	0x3b1a7c13	0.002357249
76	0x3b8b3285	0.0042479658
77	0x3a937617	0.0011250403
78	0x3aef033d	0.0018235218
79	0x3bbf8fa3	0.0058459803
80	0x3b28764c	0.0025705276
81	0x3b00c22e	0.001964699
82	0x3a46a2aa	0.00075773394
83	0xb7ee26fa	-2.838996e-05
84	0x3b39ca88	0.0028349478
85	0x3bd8e1a5	0.006618696
86	0x39ae8915	0.0003329
87	0x39cc4757	0.00038963064
88	0x3b4c75f0	0.0031198226
89	0x39d4b537	0.00040570807
90	0x3b2cf84e	0.0026393118
91	0x3aabf025	0.0013117833
92	0x3b8fa779	0.004383978
93	0x3a960343	0.0011445064
94	0x3b9efc82	0.0048518786
95	0x3bfe0c5d	0.0077529387
96	0xbbaacf5f	-0.005212709
97	0xbaf118af	-0.0018394197
98	0xbbe0f290	-0.006864853
99	0xbb3a0465	-0.0028383967
100	0x37eb35dd	2.8039265e-05
101	0xbb09006a	-0.0020904788
102	0xbbca6485	-0.0061765336
103	0xbc16f4d5	-0.009213646
104	0xbc3a9edc	-0.011390414
105	0x37e4229c	2.7195834e-05
106	0xbb30f088	-0.0026998837
107	0xbb823b30	-0.003974341
108	0xbc0342fe	-0.008011578
109	0xba9433cf	-0.0011306944
110	0xbb97abdf	-0.004628643
111	0xbbc9512e	-0.0061437106
112	0xbb2b38e2	-0.0026126434
113	0xbb2ca75b	-0.0026344869
114	0xbb3e5a9c	-0.0029045707
115	0xba98a1bd	-0.0011644881
116	0xbb986c3f	-0.004651576
117	0xbc2f3572	-0.010693895
118	0xb941b773	-0.00018474254
119	0xba6af733	-0.0008963227
120	0xbb78191f	-0.003785677
121	0x3a2ee538	0.00066717295
122	0xbb68885a	-0.0035481662
123	0x39be44cd	0.00036290885
124	0xbb79a25f	-0.0038091165
125	0xbb005bf8	-0.0019586068
126	0xbbb22f6c	-0.005437782
127	0xbc090f67	-0.008365489
128	0xba8e9647	-0.0010878526
129	0x39758ad7	0.00023416743
130	0xbaa49f7f	-0.001255974
131	0x3adfb48b	0.0017067356
132	0x3a5a9fa3	0.0008339828
133	0xba0ee930	-0.0005451618
134	0xb9564689	-0.00020434907
135	0x39ee9ae8	0.00045510312
136	0x3aa1c7ec	0.0012342907
137	0x3a72d47d	0.00092632306
138	0xba0dc4f3	-0.0005408071
139	0x3ac4ce70	0.0015015136
140	0xb87e3759	-6.0609866e-05
141	0xb9b5efd5	-0.000347017
142	0xb95c7faa	-0.00021028394
143	0xba142592	-0.00056513504
144	0x38d68ab8	0.000102301536
145	0xba12b975	-0.0005597093
146	0x3ac3fc4b	0.0014952508
147	0x39f0af4d	0.00045906976
148	0xb9160742	-0.00014307818
149	0x3a23676d	0.0006233368
150	0x38d33ae3	0.000100722325
151	0xb966814f	-0.0002198268
152	0xba7b94a5	-0.000959704
153	0x3a137c0d	0.000562609
154	0xba060f5e	-0.0005113984
155	0x39d6a0e2	0.00040937128
156	0x39ac6954	0.00032884872
157	0x39655701	0.00021871553
158	0x3a08e1b6	0.0005221622
159	0x3aa5b29c	0.0012641731
160	0x39d77038	0.00041091605
161	0xba446e4f	-0.0007493244
162	0x3ab9feca	0.0014190313
163	0xba3cb5a5	-0.0007198698
164	0xb90e23d7	-0.00013555527
165	0x3aaa2bca	0.0012983021
166	0x3a9d92d5	0.0012021909
167	0x3b173d13	0.0023077175
168	0xb65ac583	-3.2599498e-06
169	0x3ac2c195	0.0014858717
170	0x3ae25a45	0.0017269334
171	0x3a8057af	0.0009791757
172	0x3ae76b62	0.0017655904
173	0x3a6e1a3c	0.0009082889
174	0x3a946cbf	0.0011323913
175	0x3a38a163	0.00070430915
176	0xb97db544	-0.00024195487
177	0x3a54d3e8	0.00081187347
178	0x3ae20b22	0.001724575
179	0xb93ca44c	-0.00017990283
180	0x3b20f0f2	0.0024557677
181	0x3b273c8e	0.002551827
182	0x3a1a0081	0.0005874709
183	0x3b1a4ff7	0.0023546198
184	0xb87c46c3	-6.0147384e-05
185	0x38a2281d	7.732234e-05
186	0x3a08cd72	0.0005218602
187	0xb98b137a	-0.00026526657
188	0x3a73bf50	0.0009298222
189	0xb868159c	-5.5333236e-05
190	0x3adfa7bb	0.0017063537
191	0x3abb2ef1	0.0014280957
192	0xbb5e9a07	-0.003396632
193	0xba0379ef	-0.0005015423
194	0xbaf21851	-0.0018470382
195	0xbb032b5a	-0.0020014853
196	0xb9fa7731	-0.0004777252
197	0xbabd8267	-0.0014458419
198	0xbb026c0f	-0.0019900834
199	0xbb0f44fb	-0.0021861184
200	0xbbb019a6	-0.0053741513
201	0x39f6f9e1	0.0004710695
202	0x37adb4ab	2.0707337e-05
203	0xba0857f0	-0.0005201092
204	0xbb51d7fe	-0.003201961
205	0xba48bce3	-0.0007657541
206	0xbaf61835	-0.0018775525
207	0xbae1c14a	-0.0017223742
208	0xba9ae691	-0.0011817982
209	0xba9fd4da	-0.0012194172
210	0xb98c4c31	-0.00026759648
211	0x3a1553c0	0.00056963786
212	0x39ef2a02	0.0004561693
213	0xbb61a9bc	-0.0034433445
214	0xba851530	-0.0010153409
215	0xb906df2e	-0.00012862377
216	0xb9295b80	-0.00016151182
217	0xb912b9c3	-0.00013992847
218	0xbb164978	-0.0022931974
219	0xb9cbba82	-0.00038858136
220	0x39a3823e	0.0003118682
221	0xbae48f5d	-0.0017437745
222	0xbae4b784	-0.0017449711
223	0xbae82ed9	-0.0017714157
224	0x3b4a0f84	0.0030832002
225	0x3ae3d917	0.0017383423
226	0x3bc22583	0.005924882
227	0x3a32e02d	0.0006823566
228	0x3b158ee9	0.0022820777
229	0x3b65e38f	0.0035078262
230	0x3b8c847f	0.0042882557
231	0x3bcf3218	0.0063231103
232	0x3bd751e3	0.006571041
233	0x3a1a8662	0.00058946584
234	0x3b6b93b5	0.0035946195
235	0x3b9811e8	0.0046408065
236	0x3bb8dbc4	0.0056414325
237	0x39997421	0.00029268957
238	0x3ab8416e	0.0014057586
239	0x3b963d96	0.0045849783
240	0x3a8cddb6	0.0010747227
241	0x3ab47cc1	0.001377009
242	0x3b87c484	0.0041432995
243	0xba23e5ab	-0.000625218
244	0x3aeed705	0.001822204
245	0x3bbec89f	0.0058222557
246	0x3978ce77	0.00023728037
247	0x3b282fb6	0.0025663204
248	0x3a4231fe	0.0007407962
249	0x39cf02cd	0.00039484203
250	0x3b8da0cc	0.004322147
251	0x3a0f98d3	0.00054777897
252	0x3b25d87f	0.0025306044
253	0x3b7d1e33	0.0038622736
254	0x3bc420b8	0.0059853457
255	0x3bbbacba	0.0057273777

exp_avg_sq f4 [16, 32]
0	0x38ca6965	9.651742e-05
1	0x378d62bd	1.6854488e-05
2	0x3937be67	0.0001752317
3	0x389dca8b	7.52407e-05
4	0x38c67668	9.4634306e-05
5	0x38708d52	5.7352074e-05
6	0x38e501a9	0.0001091988
7	0x399f4e7b	0.00030385316
8	0x39e89087	0.0004435817
9	0x37ec38e9	2.8159893e-05
10	0x385058b0	4.967366e-05
11	0x393b725e	0.00017876315
12	0x39d429f6	0.00040467054
13	0x381a142e	3.6735255e-05
14	0x38a86357	8.029368e-05
15	0x3905e1a2	0.00012767923
16	0x38971c66	7.205531e-05
17	0x384af403	4.8387807e-05
18	0x391d1b7d	0.00014982927
19	0x3811d523	3.4769193e-05
20	0x38ffb203	0.00012192505
21	0x3a134c47	0.0005618971
22	0x372b3474	1.0204607e-05
23	0x3971b5b4	0.0002305124
24	0x3886c019	6.425399e-05
25	0x374a33c8	1.20521945e-05
26	0x38858ab8	6.3677726e-05
27	0x37739dd4	1.4520676e-05
28	0x39214995	0.00015381568
29	0x389bee3e	7.435352e-05
30	0x3a1ea1ad	0.0006051313
31	0x39e588d3	0.00043780226
32	0x386001a2	5.3407282e-05
33	0x36d5c710	6.3710686e-06
34	0x38ebb6a9	0.00011239696
35	0x382f58b4	4.1805863e-05
36	0x388362ad	6.2649466e-05
37	0x38089340	3.2562064e-05
38	0x38c1d326	9.2422866e-05
39	0x393cd917	0.0001800995
40	0x398d1f86	0.00026917103
41	0x376de725	1.4180118e-05
42	0x381f812c	3.8028855e-05
43	0x39108848	0.00013783679
44	0x39665d1e	0.00021969198
45	0x37748858	1.4575278e-05
46	0x3856bbc2	5.119644e-05
47	0x38d81b88	0.00010304811
48	0x383b599d	4.4667733e-05
49	0x37d2f718	2.5149013e-05
50	0x389c25b0	7.4456795e-05
51	0x37875d59	1.6136722e-05
52	0x38afdc34	8.385666e-05
53	0x39af2e11	0.00033412923
54	0x36c7879e	5.94645e-06
55	0x38b9f66a	8.8673856e-05
56	0x384ecd20	4.9305265e-05
57	0x366e9864	3.5553467e-06
58	0x38604552	5.347032e-05
59	0x36b09b28	5.2632713e-06
60	0x38b486cd	8.6081774e-05
61	0x37f8fc94	2.968152e-05
62	0x3995e1f3	0.0002858784
63	0x398a57b2	0.0002638675
64	0x388f94bc	6.846475e-05
65	0x37442519	1.1691148e-05
66	0x39375e02	0.0001748726
67	0x387d5cac	6.0406208e-05
68	0x38f08ff9	0.00011470909
69	0x3895f24a	7.1500035e-05
70	0x38e6aa1e	0.000109989414
71	0x3985def7	0.0002553386
72	0x39b09007	0.00033676645
73	0x37b7f47c	2.1929147e-05
74	0x383d1fdc	4.5090783e-05
75	0x3926f992	0.00015923966
76	0x39c09a23	0.00036735935
77	0x38300cb2	4.1973493e-05
78	0x385198b0	4.9971684e-05
79	0x3928d283	0.0001610015
80	0x3868d966	5.551558e-05
81	0x386c5623	5.6347006e-05
82	0x3914318c	0.00014132838
83	0x3820ddf4	3.8353683e-05
84	0x38d3a774	0.000100924546
85	0x3a03de14	0.00050303456
86	0x370d3dfe	8.418689e-06
87	0x398476f8	0.0002526564
88	0x38a528ab	7.875388e-05
89	0x37aefd11	2.086026e-05
90	0x389315b9	7.0135524e-05
91	0x3788ec28	1.6322432e-05
92	0x390d05ed	0.00013449015
93	0x38aadaf2	8.1470134e-05
94	0x3a28415a	0.00064184295
95	0x39d91846	0.0004140755
96	0x391301f6	0.00014019743
97	0x37c57ee8	2.3543325e-05
98	0x399c1b65	0.0002977505
99	0x39101fcf	0.0001374476
100	0x3945e666	0.00018873214
101	0x38b2716a	8.5088264e-05
102	0x3980cabb	0.00024565108
103	0x3a12e743	0.00056039187
104	0x3a4a75b5	0.0007723228
105	0x383cf060	4.504656e-05
106	0x38b58572	8.655609e-05
107	0x39ca9832	0.00038641837
108	0x3a341a98	0.0006870418
109	0x3857cdfd	5.1451836e-05
110	0x3903e768	0.00012579339
111	0x3997dfaa	0.00028967607
112	0x3907cbbc	0.000129505
113	0x3889c23c	6.568848e-05
114	0x397f50ff	0.00024348868
115	0x385c5041	5.252683e-05
116	0x396e17d2	0.00022706322
117	0x3a8a3f72	0.0010547473
118	0x379a79f4	1.841502e-05
119	0x39b15c2d	0.00033828747
120	0x3919e3be	0.00014676058
121	0x37e1056e	2.6824619e-05
122	0x38e3d143	0.000108631815
123	0x37d806f9	2.5752453e-05
124	0x39922562	0.00027875142
125	0x38bf55ce	9.123572e-05
126	0x3a7cfafd	0.0009650437
127	0x3a6584bb	0.0008755435
128	0x38b6204e	8.6844535e-05
129	0x378364cb	1.5663352e-05
130	0x3952aa66	0.00020090639
131	0x3880d552	6.1432496e-05
132	0x38910ac5	6.916145e-05
133	0x38592373	5.1769846e-05
134	0x38de9cf1	0.000106150175
135	0x399bf620	0.0002974728
136	0x39eb4b06	0.0004487859
137	0x37ea6245	2.7940734e-05
138	0x38728c45	5.7827932e-05
139	0x3951da33	0.00020013079
140	0x39cbfec2	0.00038908987
141	0x37ff8437	3.0459936e-05
142	0x38b389aa	8.561027e-05
143	0x3916f910	0.00014397898
144	0x38951d35	7.110314e-05
145	0x384b9ef0	4.8546994e-05
146	0x390eb17e	0.00013608296
147	0x38089013	3.2559106e-05
148	0x390bbd68	0.00013326632
149	0x3a0a3f48	0.0005273712
150	0x372ac7d9	1.017932e-05
151	0x39689822	0.00022181918
152	0x389a79d6	7.365986e-05
153	0x373db546	1.1307484e-05
154	0x38612a5a	5.3683623e-05
155	0x374ddff7	1.2271098e-05
156	0x392564ff	0.0001577325
157	0x384e4500	4.917849e-05
158	0x3a1d38cc	0.0005997538
159	0x39d63cb6	0.00040862494
160	0x38abec35	8.1979124e-05
161	0x373223fb	1.0618004e-05
162	0x3944ba05	0.00018761314
163	0x38821071	6.2019455e-05
164	0x38a3649f	7.791188e-05
165	0x3852d117	5.026263e-05
166	0x38fdfedd	0.00012111452
167	0x39a27a94	0.00030990376
168	0x39e0e0ac	0.00042892003
169	0x37d250f2	2.5071644e-05
170	0x38914995	6.9278445e-05
171	0x396d92c1	0.00022656751
172	0x39bce41a	0.00036028103
173	0x37dd1f63	2.6359869e-05
174	0x38988203	7.2721414e-05
175	0x3938d1f9	0.00017625828
176	0x388c93f7	6.703281e-05
177	0x38617266	5.3750722e-05
178	0x38f84ae0	0.00011839508
179	0x37dd485f	2.6378953e-05
180	0x3902426c	0.0001242251
181	0x3a04e3f0	0.0005069366
182	0x3724459d	9.79137e-06
183	0x391d1925	0.00014982054
184	0x38b39d6e	8.564709e-05
185	0x37003106	7.640809e-06
186	0x38926eba	6.982447e-05
187	0x3735969c	1.0823507e-05
188	0x39083741	0.00012990554
189	0x385b00bf	5.2214364e-05
190	0x3a0998f7	0.0005248929
191	0x39d2ab59	0.00040181985
192	0x38cb9afb	9.708662e-05
193	0x3793324e	1.754719e-05
194	0x393d3516	0.0001804422
195	0x38bb3b29	8.927874e-05
196	0x391ae91b	0.00014773423
197	0x3876449a	5.871486e-05
198	0x391ee04a	0.00015151608
199	0x39e60c78	0.00043878308
200	0x3a1c3079	0.0005958151
201	0x37fca981	3.0119672e-05
202	0x388a7270	6.6016684e-05
203	0x399f0552	0.00030330807
204	0x3a0d2c2e	0.00053853064
205	0x38242ea9	3.9144103e-05
206	0x38b095f4	8.420265e-05
207	0x392a1ea1	0.00016223874
208	0x38d5e81f	0.000101998674
209	0x384ca37f	4.8789658e-05
210	0x3955d62d	0.0002039305
211	0x3814a3ae	3.543839e-05
212	0x39409142	0.0001836466
213	0x3a49794a	0.0007685615
214	0x3731f408	1.060684e-05
215	0x39949d8a	0.00028346136
216	0x38f55472	0.000116982395
217	0x3785698c	1.5903985e-05
218	0x3883f032	6.2913066e-05
219	0x37439e8a	1.16598185e-05
220	0x3947f7c9	0.00019070426
221	0x38b2bea5	8.523212e-05
222	0x3a4f1b8f	0.000790053
223	0x3a1e9837	0.00060499035
224	0x38c7a561	9.519864e-05
225	0x376e4b81	1.4203485e-05
226	0x395557cf	0.00020345974
227	0x3890f345	6.9117676e-05
228	0x39069332	0.0001283407
229	0x388fabaa	6.850746e-05
230	0x391af5ac	0.00014778104
231	0x39a0e4d1	0.0003068806
232	0x39e9e5b0	0.00044612354
233	0x37a76580	1.9955216e-05
234	0x3886ffc6	6.4372594e-05
235	0x3986981c	0.00025671802
236	0x39e38129	0.00043393046
237	0x37eab8cd	2.7981028e-05
238	0x3896bf4e	7.188191e-05
239	0x3961089a	0.00021460876
240	0x3899072f	7.2969466e-05
241	0x3838b023	4.403306e-05
242	0x38ec3298	0.00011262781
243	0x37e4caa1	2.7274074e-05
244	0x38e43ddc	0.000108834094
245	0x3a2026e4	0.0006109311
246	0x36dc69b4	6.5688164e-06
247	0x392a726c	0.00016255089
248	0x38e0d1a3	0.000107202
249	0x370f78d6	8.5515985e-06
250	0x38fd896b	0.00012089576
251	0x37937444	1.7577906e-05
252	0x3916a332	0.0001436591
253	0x387a2b4c	5.9644968e-05
254	0x3a14f72b	0.0005682583
255	0x39f9f42d	0.00047674906
