checkpoints/20251114_154930/last.pt (torch, 73395 bytes, 12 tensors)

linear_modules.0.weight f4 [32, 100]
0	0x3e07bbe2	0.13255265
1	0x3e58e6d2	0.21181801
2	0x3f0e0d4a	0.5548903
3	0x3f5c981f	0.8616962
4	0x3f668f11	0.9006205
5	0x3e82ba44	0.25532734
6	0x3e3a4669	0.18190922
7	0x3f6db8bb	0.9286
8	0x3f114d89	0.56758934
9	0x3e574d10	0.21025491
10	0x3ea70164	0.32618248
11	0x3edef2c3	0.43544587
12	0x3ef45c46	0.4772665
13	0x3efcd22f	0.49379107
14	0x3ed35d08	0.41281915
15	0x3e7a74bd	0.24458595
16	0x3e2daa36	0.16959462
17	0x3ec84c91	0.39120916
18	0x3dc9143b	0.09818312
19	0x3e5cb7ad	0.21554442
20	0x3eacded3	0.3376375
21	0x3e52c4c0	0.20582867
22	0xbe3520f6	-0.17688355
23	0xbcec27e4	-0.028827615
24	0x3e96d566	0.29459685
25	0x3ebc25fb	0.36747727
26	0x3e48d291	0.19611575
27	0x3e990965	0.2988998
28	0x3edb6165	0.42847744
29	0x3efca594	0.49345076
30	0xbdaddbb7	-0.08489173
31	0xbe9e5bfb	-0.3092955
32	0xbdf22240	-0.11822939
33	0x3ec4d9d6	0.38447446
34	0x3e831bf0	0.25607252
35	0x3e4884a7	0.19581853
36	0x3ea70dbb	0.32627663
37	0x3f12b734	0.57310796
38	0x3ed19fa7	0.40942118
39	0x3e8a5fba	0.2702616
40	0xbebaf9b1	-0.36518624
41	0xbf0027df	-0.5006084
42	0xbd7d67dc	-0.061866626
43	0x3f05d048	0.52270937
44	0x3e8882ef	0.26662394
45	0x3e9a86f2	0.3018108
46	0x3f1d06b8	0.61338377
47	0x3e2c3d17	0.16820179
48	0x3e6c269d	0.23061605
49	0xbd6513ad	-0.055926967
50	0xbf7252c2	-0.9465753
51	0xbf0bac71	-0.5456
52	0xbf387ff9	-0.7207027
53	0xbed3193f	-0.412302
54	0x3ec252f3	0.3795391
55	0x3f03e25c	0.5151727
56	0xbe822def	-0.2542567
57	0xbd75cc22	-0.06000913
58	0x3eeb8690	0.460011
59	0x3ebec584	0.37260067
60	0xbf37cd5d	-0.71797734
61	0x3c6d21ae	0.014473362
62	0xbf139318	-0.5764632
63	0xbf453c23	-0.77044886
64	0xbebd28ae	-0.369451
65	0xbe4e10b9	-0.20123567
66	0xbc1ed5d2	-0.009694533
67	0x3e5b91b0	0.21442294
68	0x3e1b87b4	0.15188485
69	0x3ec163ac	0.37771356
70	0xbee2f45c	-0.44327056
71	0xbda0abe8	-0.078452885
72	0xbf3e2486	-0.7427448
73	0xbf0bea6d	-0.5465458
74	0xbeacd342	-0.33754927
75	0xbe533690	-0.20626283
76	0x3e7fa548	0.24965394
77	0x3db226c8	0.08698803
78	0xbe6615c3	-0.22469239
79	0xbea0fc4b	-0.31442484
80	0xbeb6c6af	-0.3569846
81	0xbe4749cf	-0.1946175
82	0xbe4ea595	-0.20180352
83	0xbea523f0	-0.3225398
84	0xbed6590b	-0.4186481
85	0xbeb2cb65	-0.34920803
86	0x3ea806d4	0.3281771
87	0x3e946043	0.28979692
88	0x3ed25e6d	0.41087666
89	0x3f493b20	0.7860584
90	0xbe428656	-0.18996558
91	0xbef69eb7	-0.48167965
92	0x3bc2d5e0	0.005945906
93	0xbd91f5a1	-0.07126928
94	0xbed1909c	-0.4093064
95	0x3f0724e0	0.5279064
96	0x3f90fe23	1.1327556
97	0x3f6713fc	0.9026487
98	0x3f207437	0.6267733
99	0x3f6cac76	0.92450655
100	0xbea29bd6	-0.31759518
101	0xbe09c884	-0.13455397
102	0xbd514b70	-0.051097333
103	0xbe9ddb95	-0.3083159
104	0x3f4f51d6	0.80984247
105	0x3e8da6b6	0.27666253
106	0x3d24df4c	0.040252015
107	0x3f00edb4	0.50362706
108	0x3dc978d4	0.09837499
109	0xbeed8a64	-0.46394646
110	0xbe08d719	-0.13363303
111	0x3de4eaca	0.11177595
112	0x3dd8ac1e	0.10579704
113	0x3e01abe0	0.12663221
114	0x3edd1fef	0.43188426
115	0xbe692851	-0.22769286
116	0xbecc2dbf	-0.39878651
117	0x3e6d73bf	0.23188685
118	0x3ed7e0fb	0.42163834
119	0xbd9c626e	-0.076359615
120	0x3e4b84d2	0.19874886
121	0x3e7e1000	0.24810791
122	0x3d9f884c	0.077896684
123	0x3dce5d30	0.10076368
124	0xbb159872	-0.002282646
125	0xbda9a101	-0.08282662
126	0x3d1011e0	0.035173297
127	0x3e6ff48d	0.23433132
128	0x3ec2adec	0.38023317
129	0x3e1bdb8d	0.1522047
130	0x3e104f04	0.14092642
131	0x3e82ce98	0.25548244
132	0x3e60cd2c	0.21953267
133	0x3e7ddc09	0.24790968
134	0x3e2e0a5b	0.16996138
135	0xbc290efa	-0.010318512
136	0xbe064460	-0.1311202
137	0x3d3f563e	0.046713106
138	0x3dee01bd	0.11621425
139	0x3d4a5bf0	0.049404085
140	0xbe6c3202	-0.23065951
141	0x3eca639d	0.39529124
142	0x3f18e319	0.59721524
143	0xbe2f8b90	-0.17143083
144	0x3e5e6239	0.21717156
145	0x3e841d7f	0.25803754
146	0x3e891b9b	0.26778874
147	0xbe07a0ea	-0.13244978
148	0x3e8bc1df	0.2729635
149	0x3e1f3146	0.1554614
150	0x3d30f10c	0.04319863
151	0x3e8e36d0	0.27776194
152	0xbe83921f	-0.2569742
153	0xbf864fbe	-1.0493085
154	0x3f095c0b	0.5365607
155	0x3e03ce2e	0.1287162
156	0x3eb766d5	0.35820642
157	0xbe0bbeec	-0.1364705
158	0x3e3fde34	0.18737108
159	0x3d0bd80b	0.03414158
160	0xbd2c1b5f	-0.04201829
161	0xbca99d0c	-0.020704769
162	0xbed62920	-0.4182825
163	0xbfd54f93	-1.6664909
164	0x3dcdfa05	0.10057453
165	0x3d1e8cbf	0.038708445
166	0x3eb8134e	0.35952228
167	0xbd81b9e7	-0.06334286
168	0x3d418637	0.047247138
169	0xbb11da3a	-0.0022255317
170	0xbd11e359	-0.035617206
171	0x3e29106b	0.16510169
172	0xbcb65164	-0.022255607
173	0xbffff3eb	-1.9996313
174	0xbeb75d9b	-0.35813603
175	0x3e4468a6	0.19180545
176	0x3e11f794	0.142546
177	0x3c352a69	0.011057475
178	0x3c798180	0.015228629
179	0xbd93b942	-0.072130695
180	0xbef521a6	-0.47877234
181	0x3e94b253	0.290423
182	0x3c2423f2	0.010018336
183	0xc00d53c2	-2.2082372
184	0xbead00d6	-0.337897
185	0x3cd85c6d	0.02641126
186	0xbc84eb0c	-0.01622536
187	0x3da0b8c4	0.07847741
188	0xbe51c763	-0.20486216
189	0xbef71215	-0.48255983
190	0xbed0cfa4	-0.40783417
191	0x3f1b2f28	0.6061883
192	0x3eeaa142	0.45826155
193	0xc0098b0d	-2.149112
194	0xbdfa02e2	-0.12207581
195	0x3de4a880	0.11164951
196	0xbb5e0a90	-0.0033880807
197	0xbe9de884	-0.30841458
198	0xbe671b67	-0.22569047
199	0xbf3dfebf	-0.74216837
200	0xbd89c92b	-0.06727823
201	0xbf2750ba	-0.65357554
202	0xbf69fa11	-0.91397196
203	0x3da45380	0.08023739
204	0xbee67521	-0.45011237
205	0xbf743d7e	-0.9540633
206	0xbf291cb6	-0.66059434
207	0x3dabdab9	0.083913274
208	0x3e8958bd	0.26825514
209	0xbe538551	-0.20656325
210	0xbe35989e	-0.17734
211	0xbdaee532	-0.08539809
212	0xbf31053a	-0.691486
213	0xbd989b25	-0.074514665
214	0xbddc1025	-0.10745267
215	0xbe1214d6	-0.14265761
216	0xbdedf278	-0.11618513
217	0x3e472840	0.19448948
218	0x3ea5598e	0.32294887
219	0xbe111c4b	-0.14170949
220	0xbf6e5fa3	-0.9311468
221	0xbe8c0f20	-0.2735529
222	0xbe5d733a	-0.21625987
223	0x3e4f6b54	0.20255786
224	0xbe483b93	-0.19553976
225	0x3e33d64b	0.17562215
226	0xbcafebdb	-0.02147477
227	0x3eac13d7	0.33608887
228	0x3ea30efd	0.31847373
229	0xbf5efbf5	-0.87103206
230	0xbf4ade40	-0.79245377
231	0xbe7eaece	-0.2487137
232	0xbd15cbc7	-0.03657129
233	0xbc3315eb	-0.010930519
234	0x3e77fedd	0.24218316
235	0x3f3a2f6d	0.72728616
236	0x3e8ed2b8	0.2789514
237	0x3e95cc19	0.29257277
238	0x3eb1af86	0.34704226
239	0xbf088322	-0.5332509
240	0xbf411b06	-0.7543186
241	0xbf029dea	-0.5102221
242	0xbe63b3ea	-0.222366
243	0x3ea5b00f	0.32360885
244	0x3f3efa6f	0.7460088
245	0x3ed3b8e6	0.41352004
246	0xbacb65e6	-0.0015518039
247	0x3f0e1f48	0.5551648
248	0x3e655584	0.22395903
249	0xbd4b1122	-0.049576886
250	0xbf839453	-1.027964
251	0xbf0b6c74	-0.5446236
252	0x3bd09891	0.0063658436
253	0x3eff8961	0.499095
254	0x3e8d2fa3	0.27575406
255	0xbee828a2	-0.453435

linear_modules.1.weight f4 [16, 32]
0	0xbf06d06c	-0.52661777
1	0x3f879a83	1.0594028
2	0xbe2ea68a	-0.17055717
3	0x3fa6a786	1.3019874
4	0xbf0163c5	-0.5054286
5	0x3f0b31c5	0.5437282
6	0xbddf1f92	-0.108946934
7	0x3ed39724	0.4132625
8	0x3e7d024e	0.2470791
9	0x3f8cfd0f	1.1014727
10	0x3f570b23	0.8400137
11	0x3eb9eb80	0.36312485
12	0x3ede334e	0.43398517
13	0x3d8fe7c0	0.07026625
14	0xbe2bd428	-0.1678015
15	0x3f4cf97f	0.800682
16	0x3eebf57a	0.4608572
17	0x3f053ba1	0.5204411
18	0xbda9bc0c	-0.0828782
19	0xbeb917d2	-0.36150986
20	0x3dcec4a3	0.10096099
21	0x3e920c81	0.28525165
22	0xbe8a7645	-0.27043357
23	0xbecfc5b7	-0.40580532
24	0x3e1d5b25	0.153668
25	0xbf808764	-1.0041318
26	0xbfa5064b	-1.2892545
27	0x3f01efa5	0.50756294
28	0xbebd9789	-0.37029675
29	0x3e713d81	0.23558618
30	0xbdbf7e7f	-0.09350299
31	0xbedfe367	-0.43728182
32	0x3e0f689d	0.1400475
33	0x3fb3c303	1.4043888
34	0xbe9a0a81	-0.3008614
35	0xbea2c59c	-0.3179139
36	0x3f34a049	0.70557076
37	0x3f4431fe	0.7663878
38	0xbed4106a	-0.41418773
39	0x3ea364e9	0.31912926
40	0xbf0a0ac6	-0.5392269
41	0xbebad772	-0.36492497
42	0x3f258904	0.64662194
43	0x3e2c16c4	0.1680556
44	0x3f0a11be	0.5393332
45	0xbdcc889a	-0.09986992
46	0xbecf36db	-0.4047154
47	0xbe7dbcef	-0.24779104
48	0xbe59f469	-0.21284641
49	0xbd0f1cb0	-0.034939468
50	0x3eb76beb	0.35824522
51	0x3e87c498	0.26517177
52	0xbeb4a6b7	-0.35283443
53	0x3e86a939	0.26300982
54	0xbee80479	-0.45315912
55	0x3f394241	0.7236672
56	0x3ebd381d	0.36956874
57	0x3c405a61	0.011740298
58	0x3dcb6789	0.09931857
59	0x3f5ddb0d	0.8666237
60	0x3dbe5c57	0.09294956
61	0xbf2a6b6a	-0.6657015
62	0x3f161f14	0.5864117
63	0xbe3743ea	-0.17897001
64	0x3e99aa7f	0.3001289
65	0xbf00b82e	-0.50281036
66	0x3f45d565	0.7727874
67	0x3f441c93	0.766061
68	0x3d1d1bfd	0.03835677
69	0x3f2894fd	0.6585234
70	0xbeff1712	-0.4982229
71	0xbd1ba3dc	-0.037998065
72	0xbf4adb91	-0.7924128
73	0xbe88b24b	-0.26698527
74	0xbf3ef692	-0.74594986
75	0xbebd6962	-0.36994463
76	0xbf27205f	-0.6528377
77	0x3e2b0667	0.16701661
78	0xbf270b32	-0.6525146
79	0x3f4c7d1d	0.7987841
80	0xbe6ef3d2	-0.23335198
81	0xbedfd6bc	-0.43718517
82	0x3e997779	0.29973963
83	0x3f7c5dad	0.9858044
84	0x3e44e012	0.19226101
85	0x3ee0087c	0.43756473
86	0xbee3c0fa	-0.44483167
87	0x3f1f38b2	0.62195885
88	0x3dfa5f53	0.12225213
89	0x3fa4ff34	1.2890382
90	0x3d03b24c	0.03215246
91	0x3f3c5aa2	0.73575795
92	0x3ed13be2	0.40866
93	0x3f4260a5	0.7592872
94	0xbda73839	-0.081650205
95	0x3eab08fa	0.33405286
96	0x3e9c126f	0.30482814
97	0xbe2c8bd1	-0.1685021
98	0xbe83b05b	-0.25720486
99	0xbe1c6965	-0.1527458
100	0xbf02465e	-0.5088862
101	0xbf81423b	-1.0098337
102	0x3f63c464	0.88971543
103	0xbeed030f	-0.46291396
104	0x3d4a88e8	0.04944697
105	0x3e982de5	0.29722515
106	0xbd0a6ce6	-0.03379526
107	0x3f3196c4	0.69370675
108	0x3e289308	0.16462338
109	0x3f0a003e	0.5390662
110	0x3f1b9fb1	0.60790545
111	0xbde7c536	-0.11316912
112	0xbe2596dd	-0.16170831
113	0x3e2d1c59	0.16905345
114	0x3e24e9b3	0.16104774
115	0x3e2a6115	0.16638596
116	0x3f6eddd2	0.9330722
117	0x3ef62062	0.4807158
118	0x3ece7d33	0.40329894
119	0xbf095b31	-0.5365477
120	0x3eb9ae48	0.3626578
121	0x3f1c05c4	0.609463
122	0xbfb4f665	-1.4137694
123	0x3e7064d0	0.23475957
124	0x3e217d0d	0.1577036
125	0x3d380b32	0.04493255
126	0xbe926f57	-0.2860057
127	0x3e322797	0.17397915
128	0x3f42ba38	0.760654
129	0xbeda8102	-0.4267655
130	0x3ec3a1a1	0.3820925
131	0xbf22ee66	-0.6364502
132	0xbf399871	-0.7249823
133	0xbf352720	-0.70762825
134	0xbec23539	-0.3793123
135	0x3e4edf91	0.20202471
136	0x3ee5ec2e	0.44906753
137	0x3d7a9ef0	0.06118673
138	0xbf917442	-1.1363604
139	0xbd3e5bc6	-0.04647424
140	0x3eb769cb	0.358229
141	0x3f126b47	0.5719494
142	0x3ee511c5	0.4474012
143	0xbe2c8d86	-0.16850862
144	0xbfa9bfd1	-1.3261663
145	0x3f4595fe	0.77181995
146	0xbe39cad0	-0.18143773
147	0x3ef8b348	0.4857428
148	0x3d0e0fa3	0.03468288
149	0x3e4e564d	0.20150109
150	0x3f927278	1.1441183
151	0x3f0109ad	0.5040539
152	0xbf28ad8f	-0.6588983
153	0xbe7336a9	-0.2375132
154	0x3f86f490	1.0543385
155	0x3f38709a	0.72046816
156	0x3e8199a4	0.2531253
157	0xbf21402a	-0.6298853
158	0x3f0af06a	0.5427309
159	0xbd99e572	-0.07514466
160	0x3dca02f2	0.09863843
161	0xbf1b55e7	-0.6067795
162	0x3f3cad0e	0.7370156
163	0x3ee21140	0.44153786
164	0x3cc8dc5c	0.024519138
165	0x3f9f9893	1.2468437
166	0x3e40441a	0.18775979
167	0xbf34898b	-0.70522374
168	0x3eb39631	0.35075524
169	0x3e4788cf	0.19485782
170	0x3cbb4624	0.022860594
171	0xbecfee20	-0.40611362
172	0xbed2f400	-0.41201782
173	0xbd2b4edd	-0.041823257
174	0x3f01878c	0.50597453
175	0x3f11e4e0	0.5698986
176	0x3ecac51f	0.39603516
177	0x3f670f16	0.90257394
178	0x3e6a4b3e	0.22880265
179	0xbe5ffd3c	-0.21873945
180	0x3ebd3265	0.3695251
181	0xbe26bf1f	-0.16283844
182	0x3fc71c7b	1.5555567
183	0x3f045cdb	0.51704186
184	0xbe8ba2cb	-0.2727264
185	0xbe0882f1	-0.133312
186	0x3f294525	0.6612113
187	0xbc8d5dbc	-0.01725661
188	0xbf05e0bb	-0.52296036
189	0xbe63da7c	-0.22251314
190	0xbe10cb99	-0.14140166
191	0xbdf37938	-0.11888355
192	0xbebbe1b1	-0.36695626
193	0x3f8cbda1	1.099537
194	0x3e7d76e5	0.24752386
195	0x3f436675	0.7632821
196	0x3f4b6420	0.79449654
197	0xbe98a1f2	-0.29811054
198	0x3f2d1d45	0.67622787
199	0x3f01149e	0.50422084
200	0xbe176d4d	-0.14787789
201	0x3e50b46f	0.2038133
202	0x3ebd9b04	0.3703233
203	0xbecfbdff	-0.40574643
204	0x3e089aa3	0.13340239
205	0x3f34a933	0.7057068
206	0x3f56f557	0.8396811
207	0x3f0ac89c	0.54212356
208	0xbe118143	-0.14209466
209	0xbe2b1e54	-0.16710788
210	0xbf01539d	-0.5051821
211	0x3f1d5998	0.61464834
212	0xbd35dee8	-0.044402033
213	0xbe9afb9b	-0.30270085
214	0x3ddadcdf	0.10686659
215	0xbe5cab6c	-0.21549767
216	0x3f28cde4	0.65939164
217	0xbefb72a9	-0.49110916
218	0x3f4ea37e	0.8071822
219	0x3fad65b2	1.354666
220	0x3e26b648	0.16280472
221	0xbe2c63ad	-0.16834898
222	0x3d09d4aa	0.033650078
223	0xbf126417	-0.57183975
224	0x3f636664	0.8882811
225	0xbf3fc595	-0.7491086
226	0x3d677db1	0.056516353
227	0xbf67c876	-0.90540254
228	0x3f0fd2e5	0.56181175
229	0xbf2804ef	-0.6563253
230	0x3f0aa573	0.54158705
231	0xbdfaa116	-0.12237756
232	0x3f0f1fef	0.559081
233	0x3f775eba	0.96628916
234	0xbefc9462	-0.49331957
235	0xbec5214e	-0.38501972
236	0x3f726a14	0.9469311
237	0xbe54e26b	-0.20789497
238	0x3e083227	0.13300382
239	0x3dcc3476	0.09970944
240	0x3e9ad4da	0.30240518
241	0xbe61b0fb	-0.22040169
242	0xbefc74cb	-0.49307856
243	0xbfa6eb73	-1.3040603
244	0x3eab3bd7	0.33444092
245	0x3f1142d8	0.5674262
246	0x3ddfe312	0.10931982
247	0x3e907547	0.28214476
248	0xbf47a581	-0.77986914
249	0xbec98f8a	-0.39367324
250	0xbf0bff20	-0.54686165
251	0xbf969738	-1.1764898
252	0x3e45764c	0.19283408
253	0xbe35bc82	-0.17747691
254	0xbd7567f3	-0.059913587
255	0x3ebe3034	0.3714615

linear_modules.2.weight f4 [26, 16]
0	0x3db95241	0.09048892
1	0xbe1bd6fa	-0.15218726
2	0xbec794b0	-0.38980627
3	0x3ed582f5	0.41701475
4	0x3cf70185	0.030152092
5	0xbf59268c	-0.8482444
6	0x3ecf8b13	0.40535793
7	0xbee5de5a	-0.44896203
8	0x3e41eafd	0.18937297
9	0xbe188bda	-0.14897099
10	0x3eb8ff1b	0.3613213
11	0x3db5ff92	0.08886637
12	0xbe173485	-0.14766128
13	0xbc91b8cb	-0.017788311
14	0x3e8e8958	0.2783916
15	0x3e54aa58	0.20768106
16	0xbefe0435	-0.49612585
17	0x3e9fa59f	0.31181046
18	0xbdd92f92	-0.106047764
19	0xbe4e7448	-0.20161545
20	0xbe18a7ed	-0.14907809
21	0x3e18a107	0.14905177
22	0x3eac5293	0.3365675
23	0x3f29aa1f	0.6627521
24	0x3f114ad3	0.567548
25	0xbe8065f3	-0.2507778
26	0x3abe87d1	0.0014536326
27	0x3b7b6765	0.0038361188
28	0xbfa3c362	-1.2794001
29	0xbed693ab	-0.41909537
30	0x3ef84a74	0.48494303
31	0xbf635a75	-0.888099
32	0x3e2d6e0d	0.16936512
33	0x3ea7abde	0.32748312
34	0xbe9a9765	-0.3019363
35	0xbdca7d68	-0.098872006
36	0xbee517d8	-0.44744754
37	0x3f019c83	0.5062944
38	0x3ea3319d	0.3187379
39	0xbf8157a9	-1.0104877
40	0xbe5555eb	-0.20833556
41	0x3ea69a13	0.32539424
42	0xbf41696c	-0.75551486
43	0x3e171bc0	0.1475668
44	0xbf08ad29	-0.5338922
45	0xbf3c607f	-0.7358474
46	0x3f18d517	0.5970015
47	0x3ea5c843	0.3237935
48	0xbe547a8e	-0.20749876
49	0xbedff94d	-0.4374489
50	0xbf2884ab	-0.65827435
51	0x3e18e0e7	0.14929543
52	0x3ea7b263	0.32753286
53	0x3ec10d5b	0.37705502
54	0xbe208707	-0.15676509
55	0xbe15c140	-0.146245
56	0x3f0f950c	0.560868
57	0xbec4ffa2	-0.38476282
58	0xbe87521d	-0.26429835
59	0x3f012852	0.5045215
60	0xbf1bb73d	-0.60826474
61	0x3e528eba	0.20562258
62	0xbd2a0b5b	-0.041514736
63	0xbe098131	-0.13428189
64	0x3e84c231	0.25929406
65	0x3eeedcd5	0.46652856
66	0x3eb4563b	0.3522204
67	0xbf58b45d	-0.8465021
68	0xbee50429	-0.44729736
69	0xbd796048	-0.060882837
70	0x3db76e8a	0.089566305
71	0xbe0c70df	-0.13714932
72	0x3e620f2b	0.22076099
73	0x3e1820dc	0.14856285
74	0xbe88c226	-0.26710624
75	0xbea79a2d	-0.32734814
76	0xbf438e3e	-0.7638892
77	0xbf9c3a1a	-1.2205231
78	0x3efe8999	0.49714354
79	0x3e897638	0.26848006
80	0x3f3827bd	0.71935636
81	0x3e643d04	0.222889
82	0xbe9068e1	-0.28205016
83	0xbf5f10d0	-0.8713503
84	0xbf10b811	-0.56530863
85	0xbf3ea2bc	-0.7446706
86	0x3f1ed9e7	0.6205124
87	0xbf037bfe	-0.5136107
88	0x3f2f58bb	0.68494767
89	0xbe6d2ab6	-0.23160824
90	0x3e5384b3	0.2065609
91	0xbe804360	-0.25051403
92	0x3f476d86	0.77901495
93	0x3ee40b77	0.44539997
94	0xbdaa9a4a	-0.083302096
95	0xbf01b42d	-0.5066555
96	0x3eaa10be	0.33215898
97	0x3ecda38b	0.40163836
98	0x3d30df89	0.04318193
99	0x3f2889c2	0.658352
100	0xbf51f247	-0.8201031
101	0xbf209bd9	-0.62737805
102	0xbedf209a	-0.4357956
103	0x3db7ffb6	0.0898432
104	0x3db6d27a	0.08926864
105	0x3e71fbad	0.23631163
106	0xbd5d6692	-0.054052897
107	0x3dfac97a	0.1224546
108	0x3e486a96	0.1957191
109	0xbd02ea22	-0.031961568
110	0x3ec60c51	0.38681272
111	0xbe9e4131	-0.30909112
112	0xbf46903a	-0.7756382
113	0x3e567d7a	0.20946303
114	0xbe4a7b7f	-0.19773673
115	0xbdafb9d5	-0.085803665
116	0x3f3e658b	0.7437369
117	0xbe167db6	-0.14696392
118	0x3efc015b	0.49219784
119	0x3e3c1ff6	0.18371567
120	0xbd76db2d	-0.060267616
121	0xbdb77b64	-0.08959082
122	0x3f42a4b4	0.7603257
123	0xbf17b2d9	-0.59257275
124	0xbf653d26	-0.8954643
125	0x3ea7d4ff	0.3277969
126	0xbdb6a63d	-0.08918426
127	0xbea26ddd	-0.31724444
128	0x3edf6e3b	0.43638787
129	0x3e940b33	0.28914794
130	0x3e6d9fec	0.23205537
131	0xbf1bbd3a	-0.6083561
132	0x3ee51b64	0.4474746
133	0x3f018a75	0.50601894
134	0xbcb43058	-0.021995708
135	0xbf5d4d06	-0.86445653
136	0xbf66a4a4	-0.9009497
137	0xbf8b9820	-1.09058
138	0xbf11b294	-0.56913114
139	0x3f2e5321	0.68095595
140	0x3e092c7d	0.13395877
141	0x3d7aa793	0.061194967
142	0xbf29e95b	-0.663717
143	0xbea7c0f0	-0.32764387
144	0x3f70df28	0.9409051
145	0xbe8941de	-0.26808065
146	0x3e1c1506	0.15242395
147	0x3f01e73a	0.5074345
148	0xbf12d477	-0.57355446
149	0x3eb4c765	0.35308376
150	0x3f0c212d	0.5473812
151	0xbe812a90	-0.25227785
152	0xbee727b4	-0.4514748
153	0xbecd1791	-0.40057042
154	0x3e17d137	0.14825903
155	0x3ec5098d	0.3848385
156	0x3ee88828	0.4541638
157	0xbd010c3d	-0.031505812
158	0xbf0a303f	-0.5397987
159	0xbf4ad46e	-0.7923039
160	0xbf948fb9	-1.1606361
161	0x3e06a9ea	0.13150755
162	0xbe18234e	-0.14857218
163	0xbf0c2705	-0.5474704
164	0x3f08fb17	0.5350813
165	0x3e555655	0.20833714
166	0xbd8811ba	-0.06644006
167	0x3cf3e779	0.02977346
168	0x3f20183e	0.6253699
169	0xbdd0aec2	-0.101895824
170	0x3e516d7e	0.20451924
171	0xbcb75444	-0.022379048
172	0xbb0c8d92	-0.0021446687
173	0xbf7247e3	-0.9464094
174	0xbf3e5c39	-0.7435947
175	0x3e556ed4	0.20843059
176	0x3db568ed	0.08857904
177	0x3e00655a	0.12538663
178	0xbeb4c83b	-0.35309014
179	0xbed0bf48	-0.40770936
180	0x3f4ad435	0.7923005
181	0x3f35979e	0.70934474
182	0xbce1ddd8	-0.027571604
183	0xbf2eee7b	-0.6833264
184	0xbf1cc51e	-0.61238277
185	0x3edd3fbd	0.4321269
186	0xbfec293f	-1.8450087
187	0x3ec59ce6	0.38596267
188	0x3f58ae76	0.84641206
189	0x3d9002d3	0.07031789
190	0xbe2d6708	-0.16933835
191	0xbf004fe0	-0.5012188
192	0xbf02984f	-0.51013654
193	0xbf577117	-0.84156936
194	0xbe38118e	-0.17975447
195	0x3f075e7f	0.52878565
196	0xbe7397c9	-0.2378837
197	0xbeb28e94	-0.34874403
198	0x3d7938fd	0.060845364
199	0x3ebf8627	0.37407038
200	0x3d2edcfa	0.04269121
201	0xbdd2429e	-0.102666125
202	0x3f13d6bf	0.5774955
203	0xbf058f70	-0.52171993
204	0x3ea73a79	0.326618
205	0xbf9361d4	-1.151423
206	0x3e70049f	0.23439263
207	0x3ead3ee4	0.33837044
208	0xbefea4f0	-0.49735212
209	0xbead83c9	-0.33889607
210	0x3deddc42	0.116142765
211	0xbf1aca67	-0.6046509
212	0x3eb867ae	0.360166
213	0xbf08883a	-0.53332865
214	0x3e1cc423	0.15309195
215	0x3ee35ec1	0.4440823
216	0x3d8b964e	0.06815778
217	0x3d8cd133	0.06875839
218	0xbe1a5f30	-0.15075374
219	0xbe894939	-0.26813677
220	0xbf4759b1	-0.77871233
221	0x3ea83f7f	0.32860944
222	0x3d1acd97	0.037793722
223	0x3f015200	0.5051575
224	0x3e87557b	0.26432404
225	0xbf14f8e8	-0.581923
226	0xbe1a5de2	-0.15074876
227	0xbf0f91f3	-0.56082076
228	0xbf57f3fc	-0.84356666
229	0x3e811af1	0.25215867
230	0xbd8a01c2	-0.067386165
231	0xbec016ca	-0.37517387
232	0x3e0b451c	0.13600582
233	0x39d0b80c	0.00039809977
234	0x3e0166ad	0.12636824
235	0x3ee2b703	0.44280252
236	0xbf79f80f	-0.9764413
237	0xbd75683a	-0.05991385
238	0x3f1411c7	0.57839626
239	0x3e5e133d	0.21687026
240	0xbe511dc6	-0.20421514
241	0xbdb2a8c7	-0.08723598
242	0x3ec67ea2	0.38768488
243	0xbf30f8a3	-0.6912939
244	0xbf0fad4a	-0.56123793
245	0xbf0e2b8d	-0.55535203
246	0xbecdcb5c	-0.40194213
247	0xbf0fee7f	-0.5622329
248	0x3f64baeb	0.89347714
249	0xbd8d1742	-0.06889202
250	0xbe199a11	-0.15000178
251	0xbf097329	-0.53691345
252	0x3e19c250	0.1501553
253	0x3f72b2ad	0.9480389
254	0x3ebcb649	0.36857823
255	0xbe86e44a	-0.26346046

exp_avg f4 [32, 100]
0	0x361be9d9	2.3232917e-06
1	0x381018fb	3.435554e-05
2	0xb7dfbfac	-2.6672926e-05
3	0x37efa448	2.856752e-05
4	0xb86fa096	-5.7131598e-05
5	0xb793b126	-1.7606257e-05
6	0x369f8849	4.754435e-06
7	0x373fbcba	1.14284285e-05
8	0x365dc7b7	3.3047816e-06
9	0xb74deb8d	-1.2273796e-05
10	0x37cbb381	2.4283074e-05
11	0x39067322	0.00012822126
12	0xb8661334	-5.4854157e-05
13	0x38704f48	5.7294295e-05
14	0x386bcff7	5.622205e-05
15	0x390c5d03	0.0001338609
16	0x3909d638	0.00013145141
17	0xb8333b36	-4.273207e-05
18	0xb7d49189	-2.534014e-05
19	0xb813f017	-3.5271132e-05
20	0x374263ee	1.1586568e-05
21	0x394ebe6e	0.00019716632
22	0x392aed86	0.00016300948
23	0x398c7351	0.00026788798
24	0x3a16f791	0.0005758936
25	0x3a2a51f8	0.00064971996
26	0x3999ba95	0.00029321449
27	0xb90ab350	-0.00013227505
28	0xb95dd075	-0.00021153859
29	0xb91c2ce2	-0.0001489404
30	0xb83e4c2b	-4.5370467e-05
31	0xb894bb40	-7.092068e-05
32	0xb8cf18df	-9.875162e-05
33	0xb89f0d59	-7.584197e-05
34	0x39bf043e	0.0003643352
35	0x37d5d603	2.5491236e-05
36	0xba826e17	-0.0009951022
37	0xb9df1d69	-0.00042555787
38	0xb7b33f57	-2.1367958e-05
39	0xb8806ab2	-6.123389e-05
40	0xb7a100bf	-1.9193043e-05
41	0xb9834bb6	-0.00025042676
42	0xba5d78c8	-0.0008448479
43	0xba5aa7c3	-0.00083410385
44	0xba960c7d	-0.0011447814
45	0xbb03cdc8	-0.002011167
46	0xbacee721	-0.0015785435
47	0x384ae4f5	4.8373786e-05
48	0x39db4e72	0.0004182938
49	0x3886e88f	6.432935e-05
50	0xb8c4ff99	-9.393617e-05
51	0xba54d43f	-0.00081187853
52	0xba941a26	-0.0011299297
53	0xba3af959	-0.00071324926
54	0xbaf5c025	-0.001874928
55	0xbaa651ba	-0.0012689151
56	0xba0d41a4	-0.00053885044
57	0x39d3e994	0.00040419085
58	0x39b02b72	0.00033601705
59	0xb7d65c95	-2.55539e-05
60	0xb97b610a	-0.00023973375
61	0xba8fc87e	-0.0010969786
62	0xba6406b1	-0.0008698507
63	0x37eee85f	2.8480017e-05
64	0x39a9cb85	0.00032385826
65	0x39a0ec66	0.0003069371
66	0x3911362d	0.0001384846
67	0x38f53411	0.000116922085
68	0x38f3cfd1	0.00011625852
69	0xb8503854	-4.9643524e-05
70	0xb93511d2	-0.00017268144
71	0xba48241a	-0.0007634774
72	0xb9212e61	-0.00015371434
73	0x3a60eb1e	0.0008579957
74	0x3a280b5d	0.00064103847
75	0x395af7ef	0.00020882463
76	0x39350275	0.0001726242
77	0x3976a785	0.00023522794
78	0x39b7e386	0.00035073998
79	0x3838965f	4.4009063e-05
80	0xb84d2efe	-4.8919574e-05
81	0xb8dae6b8	-0.00010438025
82	0xb73cee8b	-1.1261213e-05
83	0x39adb9b9	0.00033135506
84	0x393d537d	0.00018055546
85	0x3960d2b7	0.00021440802
86	0x3980ecfb	0.00024590627
87	0x3959e75e	0.00020780924
88	0x3922dfb3	0.00015532858
89	0xb6c72ca8	-5.935861e-06
90	0x378bbddc	1.6658501e-05
91	0x38b8dcf7	8.8149616e-05
92	0x387efdd2	6.0794708e-05
93	0x3834d7a9	4.3116193e-05
94	0x387ac7c4	5.979069e-05
95	0x3662e77c	3.3811366e-06
96	0xb7023019	-7.759802e-06
97	0x3720fb82	9.595302e-06
98	0x37598eb3	1.2967433e-05
99	0xb66f4b3a	-3.5657563e-06
100	0x34416b13	1.8013479e-07
101	0xb7764eac	-1.468106e-05
102	0x38059339	3.1846783e-05
103	0x38f66042	0.000117481235
104	0x38db2405	0.00010449443
105	0x34b386ea	3.343951e-07
106	0xb75a582a	-1.301434e-05
107	0xb8145087	-3.5360947e-05
108	0xb84ed304	-4.931075e-05
109	0xb68111fa	-3.8465923e-06
110	0x3707b8a5	8.089618e-06
111	0xb80d0e28	-3.3630204e-05
112	0x39835a6c	0.00025053637
113	0x3a2ca0b8	0.0006585228
114	0x39f36138	0.00046421005
115	0xb88364f0	-6.265368e-05
116	0x38909a59	6.8952046e-05
117	0x383c522b	4.4899218e-05
118	0x38b89f99	8.803531e-05
119	0x38a90daf	8.061097e-05
120	0xb6589257	-3.227169e-06
121	0xb852e9ab	-5.0285522e-05
122	0x3a3eb57d	0.00072749687
123	0x3a880ddd	0.0010380108
124	0x3a25716f	0.00063111534
125	0x39326bff	0.00017015635
126	0x39b208e7	0.00033957438
127	0x3a321951	0.00067939336
128	0x3a6df6a5	0.00090775854
129	0x39b1e30b	0.0003392923
130	0x3910a1ab	0.00013793136
131	0x39eeb166	0.0004552707
132	0x3aa608a0	0.0012667365
133	0x3ac8a8b3	0.0015309065
134	0x3abf3b0e	0.0014589743
135	0x3aef45cb	0.0018255053
136	0x3ab26d47	0.001361289
137	0x3a922554	0.0011150041
138	0x3a8bacee	0.0010656395
139	0x39670080	0.00022030063
140	0x39b9e6f6	0.0003545803
141	0x3ac28dca	0.0014843282
142	0x3aff33e4	0.0019470421
143	0x3ae3f151	0.0017390643
144	0x3b0774ef	0.0020669063
145	0x3b536c4b	0.0032260593
146	0x3b205ea8	0.0024470482
147	0x3ad98be0	0.0016597472
148	0x3a983303	0.0011611882
149	0x394360cb	0.00018632707
150	0x399d768c	0.00030033698
151	0x3ac783f5	0.0015221821
152	0x3b00f631	0.0019677992
153	0x3ad8e510	0.0016547758
154	0x3b1280b5	0.0022354547
155	0x3b35dc2d	0.0027749643
156	0x3b20d1f6	0.002453921
157	0x3abedd3b	0.0014561781
158	0x3a5e0e50	0.00084707607
159	0x39ae3496	0.00033227046
160	0x39bb6a9d	0.00035746853
161	0x3a8ade45	0.0010594806
162	0x3a6d6f3b	0.0009057407
163	0x3a86d159	0.0010285779
164	0x3a6f1f02	0.0009121747
165	0x3acef6fc	0.001579016
166	0x3b08e313	0.00208873
167	0x3a88424a	0.0010395732
168	0x3a1623db	0.0005727389
169	0x392cacae	0.00016467526
170	0x3931539c	0.00016911182
171	0x39e288c8	0.0004320799
172	0x38991884	7.300175e-05
173	0x39ee8ed7	0.0004550132
174	0x39ab0781	0.00032621252
175	0x3a2b4966	0.00065340695
176	0x3a65c90e	0.0008765616
177	0x3a1cbec9	0.0005979357
178	0x38e5a596	0.00010950414
179	0xb7909520	-1.723558e-05
180	0x38ddeb77	0.0001058196
181	0x388e1155	6.774316e-05
182	0xb8d81ff2	-0.00010305633
183	0x3944fb08	0.00018785533
184	0xb90a5084	-0.000131907
185	0x388906cb	6.533934e-05
186	0x399c1350	0.00029769028
187	0x3931fcd1	0.00016974217
188	0xb8b8273e	-8.781113e-05
189	0xb6cd1aa6	-6.1125784e-06
190	0x37530e17	1.2579861e-05
191	0xb786ee4c	-1.608501e-05
192	0xb7c37df6	-2.3304467e-05
193	0x385c124e	5.2469135e-05
194	0xb8d07a0c	-9.940946e-05
195	0xb7c637f6	-2.3629498e-05
196	0x3886b035	6.422439e-05
197	0x37e82210	2.7672417e-05
198	0xb825ffda	-3.9577346e-05
199	0xb5df2c05	-1.6627606e-06
200	0x36c13747	5.7582834e-06
201	0x386102af	5.364668e-05
202	0x382847b9	4.012112e-05
203	0x380940c6	3.272367e-05
204	0x38b1d842	8.480299e-05
205	0x391d0ec6	0.0001497819
206	0x3930d1ae	0.0001686278
207	0x37b81796	2.1945492e-05
208	0xb8dd4fbf	-0.00010552955
209	0xb7a3fb99	-1.9548273e-05
210	0x37ec9419	2.8202356e-05
211	0x39283dc5	0.0001604474
212	0x39288254	0.0001607028
213	0x39bc8e2b	0.00035964078
214	0x3a2fc0e0	0.0006704461
215	0x3a42bd17	0.0007428689
216	0x39c403e4	0.00037386932
217	0xb8796205	-5.9457514e-05
218	0xb9aaecc7	-0.0003260134
219	0xb8a10075	-7.6771634e-05
220	0x383f11ce	4.555453e-05
221	0x3967466f	0.00022056115
222	0x39c1a994	0.00036938174
223	0x3a3365dc	0.00068434863
224	0x3a0495ed	0.0005057741
225	0x36bac7c0	5.566486e-06
226	0xba03874e	-0.00050174154
227	0xba1e8116	-0.0006046457
228	0xb95959d8	-0.00020728202
229	0xb74f9a99	-1.23741565e-05
230	0xb8482292	-4.7715912e-05
231	0xb92b794d	-0.00016353019
232	0x399890b1	0.00029099503
233	0xb8dd5361	-0.00010553632
234	0xba990e61	-0.0011677259
235	0xbab7d805	-0.0014026171
236	0xbaaa820d	-0.0013008729
237	0xb9dbd97e	-0.0004193298
238	0x386014f1	5.3425265e-05
239	0xb858d3d2	-5.1695686e-05
240	0xb8c71b2e	-9.494122e-05
241	0xb949d7d9	-0.00019249263
242	0xb95dbe4e	-0.00021147096
243	0xba5a8257	-0.0008335462
244	0xbaad0035	-0.0013198914
245	0xba680ca1	-0.00088519795
246	0xba5a21f2	-0.0008321098
247	0xb904ba43	-0.00012657889
248	0x3906d4ac	0.00012858462
249	0xb8924209	-6.9741225e-05
250	0xb8a6fdbe	-7.96276e-05
251	0xb9988c64	-0.00029096298
252	0xba326796	-0.00068055966
253	0xba4bb899	-0.00077713426
254	0xba7a8f97	-0.000955814
255	0x388afc48	6.627344e-05

exp_avg_sq f4 [32, 100]
0	0x2fa3d019	2.979739e-10
1	0x326e3dd1	1.3867479e-08
2	0x33316e6a	4.1311445e-08
3	0x339b4135	7.229611e-08
4	0x33d75466	1.002707e-07
5	0x34435893	1.8193013e-07
6	0x346cfa07	2.2070172e-07
7	0x3459364c	2.0229453e-07
8	0x33b42c7b	8.389994e-08
9	0x318310ef	3.814527e-09
10	0x323f10cd	1.1121483e-08
11	0x34ef6680	4.4591798e-07
12	0x35d3fb93	1.5793943e-06
13	0x364d5ed2	3.0602573e-06
14	0x36b3e29c	5.3609965e-06
15	0x37144d38	8.839466e-06
16	0x373d0c08	1.1268079e-05
17	0x370b44d2	8.301069e-06
18	0x3635cee8	2.7091537e-06
19	0x33c7f741	9.311635e-08
20	0x3344a7d1	4.5787434e-08
21	0x35dd0f8c	1.6470308e-06
22	0x36cd7d2d	6.1240485e-06
23	0x3753486d	1.2593443e-05
24	0x37a84bc1	2.0062436e-05
25	0x37e42752	2.7198028e-05
26	0x37fc04b4	3.0042931e-05
27	0x37c3fc9c	2.3363442e-05
28	0x37092952	8.175457e-06
29	0x348ece7e	2.6599804e-07
30	0x33e18b82	1.0502755e-07
31	0x366a9da4	3.4960476e-06
32	0x375e95dd	1.3267124e-05
33	0x37cd7532	2.4492478e-05
34	0x3807831a	3.2308606e-05
35	0x3813fef4	3.5284975e-05
36	0x3805ef75	3.1932683e-05
37	0x37de1c52	2.647765e-05
38	0x374109a9	1.1505946e-05
39	0x34d57311	3.9758064e-07
40	0x344cba83	1.9066833e-07
41	0x36dbf1cb	6.554857e-06
42	0x37b149da	2.1134434e-05
43	0x37ff04c9	3.0400597e-05
44	0x3815ab04	3.568364e-05
45	0x381faae1	3.8067697e-05
46	0x37fbb0c3	3.0003843e-05
47	0x37c52fa9	2.3506424e-05
48	0x3742e5d5	1.1616813e-05
49	0x34e1bdb7	4.2047552e-07
50	0x3495abf2	2.787852e-07
51	0x37131904	8.767707e-06
52	0x37b22fa7	2.1241443e-05
53	0x37d50991	2.5396033e-05
54	0x37f5e1dc	2.931145e-05
55	0x37fd32b5	3.0183563e-05
56	0x37cdecc7	2.4548162e-05
57	0x37aa4dcc	2.0301806e-05
58	0x3715b713	8.923717e-06
59	0x3499db2c	2.865794e-07
60	0x34b78ae5	3.4187465e-07
61	0x371a3096	9.190428e-06
62	0x3794c0e6	1.77328e-05
63	0x37949f5c	1.7717182e-05
64	0x379bdf9f	1.8581572e-05
65	0x37a0448b	1.9105404e-05
66	0x379da63b	1.8793266e-05
67	0x3786443c	1.6005819e-05
68	0x36bf7e83	5.7069715e-06
69	0x3433dcd2	1.6751008e-07
70	0x348d4824	2.6315786e-07
71	0x36e82fb9	6.9196944e-06
72	0x3755c692	1.2742023e-05
73	0x3749cee3	1.2028703e-05
74	0x373a380a	1.10995115e-05
75	0x373c69a4	1.123027e-05
76	0x3747fadf	1.1919735e-05
77	0x371910b8	9.123403e-06
78	0x3637607d	2.7325289e-06
79	0x339c9777	7.2918674e-08
80	0x33cb9a6a	9.481012e-08
81	0x361706cd	2.2504712e-06
82	0x3694e29f	4.437126e-06
83	0x3689c221	4.1055177e-06
84	0x36695789	3.4770658e-06
85	0x3661de6d	3.3657082e-06
86	0x36548f94	3.1674035e-06
87	0x36180509	2.2652696e-06
88	0x352efff4	6.519251e-07
89	0x32a293bf	1.892647e-08
90	0x31b0ba7c	5.143475e-09
91	0x33baed49	8.704462e-08
92	0x3412bc61	1.3665841e-07
93	0x33eb819a	1.09666146e-07
94	0x33c1692c	9.0063935e-08
95	0x33a63b3d	7.740753e-08
96	0x3393957e	6.8724134e-08
97	0x3349d16e	4.6989435e-08
98	0x328b2d28	1.6202264e-08
99	0x3056856f	7.8042367e-10
100	0x301999f1	5.587984e-10
101	0x32cf0521	2.4100304e-08
102	0x33b37f14	8.3584524e-08
103	0x340fb3d0	1.3383328e-07
104	0x344e4466	1.9210128e-07
105	0x349f36a4	2.9655814e-07
106	0x3488233c	2.535761e-07
107	0x3431035f	1.6485636e-07
108	0x33b03c5e	8.2066194e-08
109	0x319684a1	4.3806527e-09
110	0x32c9bffa	2.348678e-08
111	0x3555c534	7.963565e-07
112	0x363e876c	2.8391032e-06
113	0x36b1ab2a	5.294937e-06
114	0x36f9f053	7.4487557e-06
115	0x3717b813	9.0431595e-06
116	0x37109b41	8.619217e-06
117	0x36d3479c	6.2966265e-06
118	0x363e711b	2.8378042e-06
119	0x3401d1bd	1.2090364e-07
120	0x34025bd3	1.2140599e-07
121	0x3676ee9e	3.679575e-06
122	0x374448dc	1.1699474e-05
123	0x37a0ab04	1.9153122e-05
124	0x37b07d2c	2.1039123e-05
125	0x37bd4d67	2.2566599e-05
126	0x37d4ba12	2.5359015e-05
127	0x37c41c61	2.3378236e-05
128	0x373c1fcf	1.1213079e-05
129	0x34ebce69	4.3922344e-07
130	0x34a9ee02	3.1651876e-07
131	0x3721a54b	9.634833e-06
132	0x37d70e75	2.563673e-05
133	0x38044a70	3.1540578e-05
134	0x3807a0c0	3.233622e-05
135	0x38113b47	3.46259e-05
136	0x38114a5b	3.4639943e-05
137	0x38080046	3.242518e-05
138	0x37a33be9	1.9459012e-05
139	0x35650a30	8.532397e-07
140	0x3535c83d	6.771914e-07
141	0x37996dd8	1.8290171e-05
142	0x38067cad	3.2064203e-05
143	0x380054ca	3.0596544e-05
144	0x381a8240	3.6837766e-05
145	0x3833a190	4.2827392e-05
146	0x38122fcb	3.4853623e-05
147	0x37ec92d2	2.820176e-05
148	0x37b3591f	2.1379963e-05
149	0x35953df2	1.1119394e-06
150	0x3587cd48	1.0118029e-06
151	0x37ac9ca1	2.0576934e-05
152	0x37cd0759	2.4441326e-05
153	0x37badacd	2.2274815e-05
154	0x380b1a3a	3.3164608e-05
155	0x381f1365	3.7926617e-05
156	0x380232fb	3.1041895e-05
157	0x37de3c95	2.6492673e-05
158	0x379754b0	1.8040038e-05
159	0x3567bdd7	8.633046e-07
160	0x35478d74	7.433912e-07
161	0x376d7a93	1.415484e-05
162	0x375d0b25	1.3175221e-05
163	0x3712a51f	8.740723e-06
164	0x378657a2	1.6014852e-05
165	0x37beb338	2.273322e-05
166	0x37d1c6f1	2.500738e-05
167	0x37d07ec7	2.4854568e-05
168	0x37501356	1.2402268e-05
169	0x34f2158c	4.509169e-07
170	0x34b28eff	3.3259127e-07
171	0x36e6c842	6.877847e-06
172	0x36d05cac	6.2096715e-06
173	0x36400376	2.8612244e-06
174	0x36b515ae	5.396744e-06
175	0x37390f41	1.1030411e-05
176	0x3773be0f	1.452818e-05
177	0x3764e102	1.3642248e-05
178	0x36b61253	5.426156e-06
179	0x3435b37b	1.6922233e-07
180	0x33bfe053	8.934935e-08
181	0x35e7b2bd	1.7262861e-06
182	0x35d42f1f	1.5808945e-06
183	0x35534d10	7.8715766e-07
184	0x35dda069	1.6512469e-06
185	0x365a12bd	3.2495439e-06
186	0x368b3f50	4.1498934e-06
187	0x365a742b	3.255215e-06
188	0x35900742	1.0730948e-06
189	0x3303730e	3.0605456e-08
190	0x3193be0d	4.2998693e-09
191	0x337fc962	5.955497e-08
192	0x333c3ae5	4.3825725e-08
193	0x330e40cc	3.3120884e-08
194	0x33c17668	9.008801e-08
195	0x33e01134	1.0433942e-07
196	0x33d9fde8	1.0151035e-07
197	0x33a7e68e	7.818481e-08
198	0x32ca4687	2.3547967e-08
199	0x30736d80	8.8558494e-10
200	0x2ee95034	1.060986e-10
201	0x31dda134	6.450273e-09
202	0x331b2c88	3.612925e-08
203	0x3391f2b3	6.7962354e-08
204	0x33b7fc2d	8.567472e-08
205	0x3404eef5	1.238039e-07
206	0x342716d8	1.5561398e-07
207	0x342e1b77	1.6215004e-07
208	0x338e46d7	6.625276e-08
209	0x311aea08	2.254298e-09
210	0x319734ca	4.40068e-09
211	0x34769b3f	2.2967014e-07
212	0x35912672	1.0814531e-06
213	0x362209bf	2.4145554e-06
214	0x36834787	3.912431e-06
215	0x36c21e47	5.7851753e-06
216	0x37049113	7.901591e-06
217	0x36ddb69a	6.607571e-06
218	0x360cd5c1	2.0986047e-06
219	0x338d8158	6.5893516e-08
220	0x32c652e2	2.3087924e-08
221	0x35921f70	1.0886997e-06
222	0x36a60670	4.947935e-06
223	0x373a1def	1.1093433e-05
224	0x37924ebc	1.744122e-05
225	0x37ba8851	2.2236405e-05
226	0x37c03fc3	2.2917875e-05
227	0x379675cb	1.7936245e-05
228	0x36db953a	6.544081e-06
229	0x345bd380	2.0472908e-07
230	0x33945cd1	6.90867e-08
231	0x365de990	3.3067518e-06
232	0x375b46bc	1.3069886e-05
233	0x37c81ab6	2.3854296e-05
234	0x3802295d	3.1032938e-05
235	0x380587d6	3.1836178e-05
236	0x37cf83ed	2.4737756e-05
237	0x37a8f4c0	2.0141131e-05
238	0x37290a60	1.0075601e-05
239	0x34c2135c	3.6149402e-07
240	0x344be2d0	1.8988362e-07
241	0x37054a55	7.9447245e-06
242	0x37be9d5c	2.2723041e-05
243	0x37fbc6b2	3.0014056e-05
244	0x381a7d87	3.6833368e-05
245	0x38161662	3.5783632e-05
246	0x37cb1af0	2.421203e-05
247	0x37a69870	1.9859726e-05
248	0x373b5181	1.1165045e-05
249	0x34ddff25	4.13501e-07
250	0x34c004d1	3.576629e-07
251	0x37547e8e	1.26656505e-05
252	0x37e1bed8	2.6910959e-05
253	0x37ebbf9f	2.8103414e-05
254	0x380506eb	3.1716114e-05
255	0x37e7fc3e	2.7654805e-05

exp_avg f4 [16, 32]
0	0x3b1b5e4b	0.0023707326
1	0x3adb2303	0.0016718808
2	0x3b88555d	0.0041605667
3	0x3a71b868	0.0009220899
4	0x3ae32957	0.0017331046
5	0x3994f578	0.00028411648
6	0x3ae886ee	0.0017740407
7	0x3ba8b3ab	0.005148371
8	0x3bc772a9	0.0060866666
9	0x3934b2a4	0.00017232687
10	0x3ad9f3f1	0.0016628486
11	0x3a926d3c	0.001117147
12	0x3badc0b8	0.005302515
13	0x3aedbd8a	0.0018138152
14	0x3adaf8c3	0.0016706217
15	0x3a727b69	0.0009249957
16	0x3b6e5168	0.003636444
17	0x3ad88f8f	0.0016522276
18	0x3ab50fdd	0.0013813932
19	0x3ab20749	0.0013582493
20	0x3b3fe416	0.0029280237
21	0x3b961b87	0.0045809182
22	0x3a18fb5e	0.00058357965
23	0x3b800c90	0.0039077476
24	0x3ab34063	0.0013675805
25	0x3a6d962f	0.00090632116
26	0xb98ec44e	-0.0002723061
27	0x3a055c75	0.00050873245
28	0x3b317826	0.002707967
29	0x3adf5075	0.0017037528
30	0x3bff01e6	0.0077822087
31	0x3ba7d975	0.0051223584
32	0xb9ac7271	-0.00032891662
33	0x374115b2	1.1508748e-05
34	0x3add3333	0.001687622
35	0xba52c3a8	-0.00080400193
36	0x37c1b95a	2.3093704e-05
37	0x390f1313	0.00013644648
38	0x39843fe3	0.000252246
39	0x3a61d6cd	0.00086150767
40	0xb99fc395	-0.00030472563
41	0x3a0b7ff4	0.00053214957
42	0x3a086d03	0.00052042323
43	0xb839ba37	-4.4280863e-05
44	0x39bffa44	0.0003661682
45	0x38c8d5d9	9.5765754e-05
46	0x38d81172	0.00010302932
47	0x3aed84a7	0.0018121199
48	0xb88e0142	-6.771322e-05
49	0x3aa67535	0.0012699725
50	0xb9ec3d7e	-0.00045059243
51	0x3992f70d	0.00028031357
52	0x3984c453	0.00025323275
53	0xb9407113	-0.0001835267
54	0xb83f5586	-4.56176e-05
55	0x3add9825	0.0016906305
56	0x3aac60e8	0.0013151439
57	0x3a4a5ac6	0.0007719215
58	0xba814cb7	-0.0009864782
59	0x38fe956c	0.00012139496
60	0xb98830fb	-0.00025976435
61	0x3a9c2881	0.0011913927
62	0x3b2009fd	0.0024420016
63	0x3a86c006	0.0010280616
64	0x3a8eed2c	0.0010904423
65	0x3a501d96	0.0007938979
66	0x3aa9e4d6	0.0012961875
67	0xb9cf6cc2	-0.00039563148
68	0x3a720428	0.0009232187
69	0x3ae31632	0.001732534
70	0x3a1da959	0.00060143095
71	0x391c7b18	0.00014923175
72	0x3ac4862a	0.0014993597
73	0xb8d23dcd	-0.000100250916
74	0xb9d21f4e	-0.00040077645
75	0x3a7e4af8	0.0009700502
76	0x39e416d2	0.0004350455
77	0xb8bf4521	-9.120466e-05
78	0x3994f295	0.00028409497
79	0x3aa47a60	0.0012548678
80	0x3a52c581	0.00080402946
81	0x3ae80547	0.0017701768
82	0xbb1909c9	-0.002335178
83	0xbae7f300	-0.0017696321
84	0xba3c9ef5	-0.00071953173
85	0xb94916b5	-0.00019177313
86	0xba1430ad	-0.0005653005
87	0xba82a781	-0.0009968133
88	0x3b3545eb	0.0027660083
89	0xb7f55ba9	-2.9248959e-05
90	0x3a980b4f	0.001160005
91	0x3a510dc4	0.00079747685
92	0xba91f1d0	-0.0011134688
93	0x3ac77fc5	0.0015220573
94	0xba0930ee	-0.00052334263
95	0x3a76c57e	0.0009413584
96	0x3b082678	0.0020774882
97	0x3a92f591	0.00112121
98	0x3b9f7eef	0.0048674266
99	0x38f943ad	0.00011885851
100	0xba31f742	-0.00067888584
101	0xb91ad521	-0.00014765981
102	0xb9f2d131	-0.00046313697
103	0x3ae61981	0.0017555208
104	0x3b2fe8da	0.0026841671
105	0x39484c1b	0.00019101838
106	0x3aabf6c2	0.0013119804
107	0x39f08e75	0.00045882506
108	0x3af816d6	0.0018927704
109	0x3a095c94	0.00052399305
110	0x3b0983e8	0.0020983163
111	0x3adb1773	0.0016715362
112	0x3b2ae7f0	0.0026078187
113	0x381ee4c7	3.78832e-05
114	0xb9a63e25	-0.0003170829
115	0xba82dcb6	-0.000998399
116	0x3a079628	0.00051722163
117	0x3a4cdef4	0.0007815205
118	0x3a8106c1	0.0009843932
119	0x3ab7a46b	0.0014010792
120	0xb8ec3e28	-0.000112649344
121	0xb9deb118	-0.00042475085
122	0x3a62c2ec	0.00086502614
123	0x3a247d14	0.00062747416
124	0x3a8efccb	0.0010909078
125	0x3a8822be	0.001038633
126	0x3b38ca6e	0.002819683
127	0x3a4c741a	0.0007799283
128	0xba8fd64e	-0.0010973902
129	0xbaa5ff44	-0.0012664576
130	0xba046ddb	-0.000505177
131	0x3a0d8d06	0.0005399737
132	0xb98363a3	-0.00025060502
133	0xb90506e9	-0.00012686443
134	0x3956c094	0.00020480371
135	0x3a9b537d	0.0011850443
136	0x3a63777c	0.00086771674
137	0x3a8683bb	0.0010262647
138	0x394aeedd	0.00019353205
139	0x3b2c73e4	0.0026314193
140	0xba5924a5	-0.00082833535
141	0xbaebe3dd	-0.0017996986
142	0x3a51f7b3	0.00080096273
143	0x3ade3b4a	0.0016954925
144	0x3981303c	0.00024640735
145	0xbaca80bc	-0.0015449743
146	0x3a337ba7	0.0006846734
147	0xb9120e41	-0.00013928955
148	0x3ab8ab84	0.0014089202
149	0x393118c2	0.00016889258
150	0x3a47acd2	0.0007617
151	0xbb498a2d	-0.0030752525
152	0x3a715784	0.0009206461
153	0xbac18c7d	-0.00147666
154	0x3a87d2a2	0.0010362456
155	0xb9703711	-0.00022908697
156	0xbaec175e	-0.0018012335
157	0xbb0a7137	-0.002112461
158	0xbb4119c6	-0.0029464825
159	0x38c1d96a	9.243454e-05
160	0xb9b1a912	-0.00033886038
161	0xb9f04a51	-0.00045831737
162	0xbb46256f	-0.0030234715
163	0xb9f7a394	-0.00047233386
164	0xba0fcb6f	-0.0005485331
165	0xbb0b11d5	-0.0021220346
166	0xba83a1d2	-0.0010042733
167	0xba667277	-0.00087908603
168	0xbabc1116	-0.0014348354
169	0x3777dd13	1.477382e-05
170	0xba49b479	-0.0007694434
171	0x38a2edc1	7.769047e-05
172	0xbb24f204	-0.0025168667
173	0xbab1fd15	-0.0013579453
174	0xbacf37d4	-0.0015809485
175	0xbae3e59a	-0.0017387152
176	0xba87abc1	-0.0010350869
177	0xba19f00d	-0.0005872257
178	0xbb1a85bb	-0.0023578245
179	0xba98487a	-0.0011618279
180	0xba9d4a63	-0.0012000318
181	0xbb27e640	-0.0025619417
182	0xba24f82b	-0.00062930834
183	0xbb1e61e0	-0.0024167225
184	0xbb11d2f3	-0.002225098
185	0xbaa5edf8	-0.0012659421
186	0xb8af57ea	-8.3610255e-05
187	0xb9d523f6	-0.0004065332
188	0xbb349d73	-0.0027559667
189	0xbb0ed50a	-0.0021794462
190	0xbb753f93	-0.0037421926
191	0xbae313a9	-0.0017324585
192	0x3a8000d4	0.0009765872
193	0x39fa67e1	0.00047761112
194	0x3b41a4a1	0.002954759
195	0x3b1babf2	0.002375361
196	0x3a8a5918	0.0010555116
197	0x3aa096ad	0.0012251936
198	0x3a056d86	0.00050898676
199	0x3b9d2bc3	0.0047964766
200	0x3bc01531	0.005861901
201	0x39cdd6ce	0.0003926069
202	0x3ac1c529	0.001478349
203	0x3b865424	0.004099386
204	0x3be6db82	0.0070452103
205	0x3a7aa7ea	0.00095617643
206	0x3b4de6d9	0.0031418114
207	0x3a8f8a5b	0.0010951267
208	0x3b678819	0.0035328923
209	0x3a5f16d7	0.00085101783
210	0x3b42b704	0.0029711137
211	0x3add972a	0.0016906012
212	0x3ba9bdfd	0.005180119
213	0x3bf6d252	0.0075323964
214	0x39db4ff9	0.0004183052
215	0x3b57f290	0.0032950975
216	0x3af6b6ca	0.0018822786
217	0xb9fd6d27	-0.00048337245
218	0x39012ad2	0.0001231835
219	0xba505f88	-0.00079488056
220	0x3b7d75cc	0.0038674949
221	0x3a2e9f9a	0.0006661356
222	0x3bbad06b	0.005701115
223	0x3b89efe7	0.004209507
224	0xb9e8985f	-0.00044364014
225	0xba11fe2c	-0.00055691856
226	0xb966fcc8	-0.00022028678
227	0x3a2b2ddd	0.00065299665
228	0xba9199db	-0.0011108475
229	0x399f4788	0.00030380138
230	0xba12bc39	-0.00055975054
231	0xbb1e5619	-0.0024160205
232	0xbab85274	-0.0014062659
233	0xba5574bc	-0.00081427
234	0x3a08da6a	0.00052205345
235	0xb9d40ea4	-0.000404467
236	0xbb4490d9	-0.0029993562
237	0xbac729b8	-0.0015194928
238	0xb7f8431f	-2.959516e-05
239	0xba8c4894	-0.0010702782
240	0xbb1a6f54	-0.0023564892
241	0xbaf88206	-0.0018959648
242	0x3a2847d7	0.00064193964
243	0xba13b0ee	-0.00056339696
244	0xbadf5ef3	-0.0017041847
245	0xbb15eddc	-0.002287737
246	0xba53e2ba	-0.0008082796
247	0xbae2fe4e	-0.001731822
248	0xbb085a07	-0.0020805614
249	0xba8bd639	-0.0010668702
250	0x3aaa71f1	0.0013003928
251	0xb8f6a5dc	-0.00011761088
252	0xba7b2217	-0.000957997
253	0xba0b4bc3	-0.00053137186
254	0xbb767a84	-0.0037609646
255	0xba349b0a	-0.00068895577

exp_avg_sq f4 [16, 32]
0	0x38d4e6a8	0.00010151911
1	0x3794f391	1.7756394e-05
2	0x3941e1a4	0.00018489972
3	0x38a11573	7.6810735e-05
4	0x38d1c9c9	0.00010003482
5	0x3876c47c	5.883396e-05
6	0x38f24384	0.00011552035
7	0x39a9f4e9	0.00032416664
8	0x39f8cad3	0.00047453362
9	0x37f1dd98	2.8832626e-05
10	0x3853899b	5.0434475e-05
11	0x39423678	0.00018521573
12	0x39e2aba9	0.00043233976
13	0x381fce1c	3.810051e-05
14	0x38af9cc9	8.373854e-05
15	0x390b0f8d	0.00013261866
16	0x3899e32a	7.337921e-05
17	0x385291d2	5.0203707e-05
18	0x3920e6ca	0.00015344765
19	0x38160874	3.577066e-05
20	0x3902d34a	0.00012476477
21	0x3a1b74c6	0.00059301814
22	0x372bafbb	1.023331e-05
23	0x397bd2d5	0.00024015766
24	0x388c16fe	6.680003e-05
25	0x3753f5cd	1.263381e-05
26	0x388c90f2	6.7027184e-05
27	0x377f38c6	1.5212403e-05
28	0x392399b4	0.0001560215
29	0x38a0a965	7.660947e-05
30	0x3a2959dc	0.00064602285
31	0x39f54e9b	0.00046788607
32	0x3860b4c6	5.357412e-05
33	0x36d60299	6.3779994e-06
34	0x38ecc513	0.00011290065
35	0x382c80f6	4.11281e-05
36	0x38825e94	6.2164996e-05
37	0x3808484a	3.249225e-05
38	0x38c0f8bb	9.201603e-05
39	0x393f27a1	0.00018229942
40	0x398d6d27	0.0002697494
41	0x376baa63	1.4046763e-05
42	0x381dac1c	3.7592006e-05
43	0x390e67a2	0.00013580782
44	0x396817fe	0.00022134182
45	0x37743535	1.4555922e-05
46	0x3855bcc9	5.0958977e-05
47	0x38d7fd05	0.000102991275
48	0x383d0b9c	4.5071924e-05
49	0x37d2dc4a	2.513653e-05
50	0x389a5297	7.358676e-05
51	0x378667e2	1.6022419e-05
52	0x38ae73fe	8.318572e-05
53	0x39af0424	0.00033381686
54	0x36c6ef12	5.9286913e-06
55	0x38b9d2c6	8.860747e-05
56	0x384ed2da	4.9310598e-05
57	0x36712266	3.593182e-06
58	0x385ed9dc	5.3131822e-05
59	0x36b1e110	5.301212e-06
60	0x38b08787	8.417578e-05
61	0x37fcca61	3.0134981e-05
62	0x3996540c	0.0002867285
63	0x398adbe8	0.00026485254
64	0x389070f4	6.887494e-05
65	0x3745af81	1.1782978e-05
66	0x3938d523	0.00017627007
67	0x387d0fdf	6.033468e-05
68	0x38f1b262	0.00011525002
69	0x3896e4a4	7.195145e-05
70	0x38ecc628	0.000112902664
71	0x3987213a	0.00025773962
72	0x39b3124e	0.0003415518
73	0x37bad273	2.2270926e-05
74	0x383d04b9	4.506551e-05
75	0x3927075c	0.00015929103
76	0x39c1eb6e	0.00036987237
77	0x382f60b3	4.181331e-05
78	0x38525631	5.0148174e-05
79	0x3929375b	0.00016137717
80	0x3869ad85	5.571313e-05
81	0x386b0700	5.6034885e-05
82	0x39139017	0.0001407269
83	0x382024be	3.818119e-05
84	0x38d497ab	0.00010137198
85	0x3a043542	0.00050433364
86	0x370bad79	8.325435e-06
87	0x3983a8dc	0.00025112077
88	0x38a68bdc	7.941548e-05
89	0x37ac8cd1	2.056957e-05
90	0x389385fc	7.034463e-05
91	0x378814c8	1.622214e-05
92	0x390bbef6	0.00013327211
93	0x38aa39b4	8.11698e-05
94	0x3a2805e7	0.0006409571
95	0x39da7135	0.00041664546
96	0x3916a650	0.00014367071
97	0x37c5d525	2.3583483e-05
98	0x399c8959	0.0002985697
99	0x391049dc	0.00013760425
100	0x3945c31e	0.00018860071
101	0x38b2814c	8.511785e-05
102	0x39813778	0.00024646125
103	0x3a145145	0.0005657862
104	0x3a4d9104	0.00078417384
105	0x383c764d	4.493287e-05
106	0x38b5a8f8	8.6622254e-05
107	0x39c8edef	0.00038324247
108	0x3a35f22f	0.000694069
109	0x3856fb81	5.1255807e-05
110	0x3904076c	0.00012591266
111	0x3997ab03	0.00028928378
112	0x3906feb1	0.00012874116
113	0x388a2a8b	6.588277e-05
114	0x397f4d34	0.00024347455
115	0x385a747e	5.2083742e-05
116	0x396e6243	0.00022734054
117	0x3a8ad1c9	0.0010591085
118	0x379c5541	1.8636349e-05
119	0x39b0ae73	0.0003369931
120	0x3919054e	0.00014593193
121	0x37dcfefa	2.6344776e-05
122	0x38e50bfd	0.00010921804
123	0x37d50061	2.5391755e-05
124	0x398f1c8a	0.0002729635
125	0x38be06ef	9.0611975e-05
126	0x3a7ca973	0.0009638287
127	0x3a65bcab	0.00087637705
128	0x38b826a7	8.781003e-05
129	0x3786acfd	1.6054599e-05
130	0x3954ac3d	0.00020282059
131	0x38830e6a	6.2492516e-05
132	0x3894e5ea	7.100015e-05
133	0x385930cf	5.178229e-05
134	0x38e166fb	0.00010748018
135	0x399dc666	0.00030093192
136	0x39efddc8	0.00045750872
137	0x37ea4b72	2.7930106e-05
138	0x38704760	5.7286932e-05
139	0x395230b5	0.00020045305
140	0x39d25b19	0.00040122194
141	0x3801f0b7	3.098018e-05
142	0x38b7be4e	8.761567e-05
143	0x39167de5	0.00014352014
144	0x38979265	7.227509e-05
145	0x384b022e	4.8401e-05
146	0x390eba53	0.00013611586
147	0x380a4d75	3.29739e-05
148	0x390dfdc9	0.0001354135
149	0x3a0d0836	0.00053799467
150	0x372a443f	1.0148679e-05
151	0x396b87e8	0.00022461975
152	0x389d7e70	7.509894e-05
153	0x3741a118	1.1541204e-05
154	0x3865b917	5.4770233e-05
155	0x374fcbd6	1.2385621e-05
156	0x3924c51f	0.00015713692
157	0x384f8c7d	4.9483486e-05
158	0x3a1f9936	0.0006088199
159	0x39d8fc54	0.0004138673
160	0x38a68bb1	7.9415164e-05
161	0x372ec121	1.04161745e-05
162	0x393fb46a	0.00018282389
163	0x387f8e2f	6.0929156e-05
164	0x38a21b4e	7.729848e-05
165	0x384f3fbc	4.9412003e-05
166	0x38f908bc	0.00011874872
167	0x399e0c25	0.00030145157
168	0x39db4a2d	0.000418262
169	0x37d09ef9	2.486956e-05
170	0x388d8a66	6.749183e-05
171	0x39689a6a	0.00022182768
172	0x39b8eaca	0.00035270146
173	0x37d994cb	2.5937703e-05
174	0x38953d46	7.116287e-05
175	0x39344148	0.00017190457
176	0x388afbf9	6.627286e-05
177	0x385c6f28	5.255561e-05
178	0x38f0cd66	0.0001148235
179	0x37db7674	2.6161993e-05
180	0x38fef00f	0.00012156378
181	0x3a015e48	0.00049350085
182	0x3720d42c	9.586143e-06
183	0x3919cecf	0.00014668259
184	0x38b12af9	8.448022e-05
185	0x37013e6a	7.703531e-06
186	0x3890418d	6.878665e-05
187	0x3734833c	1.0759391e-05
188	0x3903ec62	0.00012581193
189	0x3858e14a	5.170823e-05
190	0x3a066015	0.00051260117
191	0x39cd8a15	0.00039203526
192	0x38d00edb	9.92098e-05
193	0x3795b0d3	1.7844524e-05
194	0x393fb388	0.0001828206
195	0x38bea41d	9.0904745e-05
196	0x391f828b	0.00015212053
197	0x387df2e7	6.054612e-05
198	0x39238baf	0.00015596928
199	0x39ecf02a	0.00045192364
200	0x3a20b057	0.00061297923
201	0x37fdf972	3.0276107e-05
202	0x388bfaad	6.6747285e-05
203	0x399f45d5	0.00030378872
204	0x3a11d471	0.0005562967
205	0x382a94be	4.0669685e-05
206	0x38b1c175	8.476052e-05
207	0x392a67ae	0.00016251087
208	0x38d75e30	0.00010269543
209	0x384f3e35	4.941058e-05
210	0x395c38c7	0.00021001986
211	0x38175c19	3.6086978e-05
212	0x39420037	0.00018501362
213	0x3a4e2ba9	0.0007864782
214	0x373215d3	1.0614708e-05
215	0x39965efe	0.00028681004
216	0x38f57034	0.0001170341
217	0x37862873	1.599288e-05
218	0x38870389	6.43796e-05
219	0x3747e6b7	1.1915042e-05
220	0x3949dc77	0.00019250983
221	0x38bb1336	8.920433e-05
222	0x3a53a0c7	0.0008072969
223	0x3a21f96c	0.00061788294
224	0x38c6fae9	9.4881114e-05
225	0x376f9523	1.4280234e-05
226	0x395267a7	0.00020065774
227	0x388fda8e	6.85948e-05
228	0x390608b4	0.00012782478
229	0x388eb7e7	6.805342e-05
230	0x39196a43	0.00014630803
231	0x399f4765	0.00030380036
232	0x39e91dd8	0.00044463458
233	0x37a6ed1d	1.9899157e-05
234	0x388487d7	6.3195526e-05
235	0x3984b3b2	0.00025310885
236	0x39e33a94	0.00043340458
237	0x37ea0e41	2.7901611e-05
238	0x38956015	7.12277e-05
239	0x395d45cb	0.00021102202
240	0x3898c010	7.283699e-05
241	0x3837c525	4.3814205e-05
242	0x38e807b1	0.00011064055
243	0x37e3d078	2.7157585e-05
244	0x38e1f048	0.00010773592
245	0x3a1e8516	0.0006047053
246	0x36daa7d1	6.5164427e-06
247	0x39291534	0.00016124995
248	0x38dfe367	0.000106758256
249	0x37101f2e	8.590328e-06
250	0x38fbebd5	0.0001201254
251	0x37947420	1.769705e-05
252	0x39128eea	0.00013976885
253	0x387874fe	5.9236765e-05
254	0x3a1420da	0.0005650647
255	0x39f70c9b	0.00047120903
